trained_models/gru_model.pth (torch, 158499 bytes, 11 tensors)

gru.weight_ih_l0 f4 [192, 3]
000000 07 6c 8d bd 96 90 72 3c 20 e5 ef bc 6e 8a 90 bd
       -0.0690537 0.01480498 -0.02928406 -0.07057653
000010 a2 b0 ce bd 38 a2 ce 3c 5a 5c 12 bf ea 9d 5a 3e
       -0.10092284 0.025223836 -0.5717217 0.21349302
000020 cc ac e1 3d 88 b8 05 bf 15 b6 51 3e b0 a6 bf 3c
       0.110192865 -0.522347 0.20479615 0.023394912
000030 7d 97 a7 bc 77 e6 87 be 5c e1 76 3d 50 b4 91 be
       -0.020457977 -0.26543018 0.060273513 -0.2845788
000040 94 c5 00 3e 38 5b 97 3c 75 ce 36 be e3 d5 3a 3d
       0.1257537 0.018476114 -0.17852195 0.045614135
000050 ac e5 6b bd 63 c9 d3 be 4a 3b a7 be ae d2 a9 3d
       -0.05759208 -0.41364583 -0.3266242 0.08292137
000060 dd f3 2a be bb 9e 99 be 6c 93 10 bd da 83 91 be
       -0.16694589 -0.30003914 -0.035296842 -0.28420907
000070 c8 5a 85 be 8a d8 fc bd d9 02 88 bd 0f 59 b4 be
       -0.26045823 -0.12345989 -0.06641168 -0.35224196
000080 96 a3 c5 3d d2 fc dd be 5c 96 c9 be f8 31 9e 3d
       0.09650342 -0.4335695 -0.39372528 0.077243745
000090 1e 89 25 be b3 33 30 be 00 e3 5f 3c 85 d7 d2 bd
       -0.16165587 -0.17207222 0.013664961 -0.10295013
0000a0 5a 62 d6 3d 08 d8 0a bd 2f 63 ff 3c 26 a6 c2 3d
       0.10467978 -0.03389743 0.031175224 0.095043465
0000b0 b6 fb 93 3d e8 6a e8 be fb 05 7d be 70 38 b7 3c
       0.072257444 -0.45394063 -0.24709313 0.022365779
0000c0 70 01 c6 be 2b 1a fa be a4 6a fd bd b1 d9 04 be
       -0.38672972 -0.4884809 -0.12373856 -0.12973668
0000d0 d0 50 8d be d6 0e d2 3d 21 2d 00 3e 6e 06 2a be
       -0.27600718 0.10256736 0.12517215 -0.16604015
0000e0 fc ec 21 3d 23 c6 f0 be 05 c1 08 3d 38 e4 b5 bd
       0.039532647 -0.47026166 0.033387203 -0.0888142
0000f0 7f b3 9d be fc 36 de bd 50 e0 1d 3d 1f e5 b0 be
       -0.30801007 -0.10850331 0.038544 -0.34549806
000100 f7 8b 55 be 78 57 d5 bc 44 31 3f be 0d 6d d6 be
       -0.20854174 -0.026042685 -0.18671137 -0.41880074
000110 8a ad 98 bd f8 57 81 bd db 75 1e 3e e4 9f 2a 3d
       -0.07454975 -0.06315607 0.15474646 0.04165639
000120 63 e7 8b be 80 0a 4f be 98 eb fd bd 1b 64 9b be
       -0.27324972 -0.20218849 -0.123984516 -0.30349812
000130 88 1c a5 bd 6c 61 4f 3d be 0d a3 be 97 5e ec bd
       -0.080620825 0.050630018 -0.31846422 -0.11541479
000140 74 34 84 bd e2 a0 90 be 11 55 cc 3c e4 f3 4e bd
       -0.06455317 -0.28247744 0.024942907 -0.05052556
000150 a4 df 6a be ae 59 b8 bd 9a 71 92 3d d4 c1 0f be
       -0.22936875 -0.0900148 0.07150574 -0.14038783
000160 df 3c 87 3d c4 18 1c 3d c6 0e 82 be 3a 06 3b be
       0.06603407 0.038109556 -0.25401896 -0.18264094
000170 02 98 98 3d 68 bb 6f be d0 44 c6 be 96 ab 88 bd
       0.07450868 -0.23411334 -0.38724375 -0.066733524
000180 22 6d e7 bd 06 b3 3f be 2c 83 35 bd fe 38 e3 be
       -0.11300112 -0.18720636 -0.04431455 -0.4437942
000190 fb 17 0b be 88 cc ff 3c b4 cb 92 be 15 14 8c be
       -0.13583367 0.031225458 -0.28671038 -0.2735907
0001a0 40 28 40 3b 55 3d 90 be a1 18 9a be 3a f8 8c bd
       0.0029320866 -0.28171793 -0.30096915 -0.06883283
0001b0 58 72 5c be 95 79 60 be 5e e6 ff 3d 1c f6 86 bd
       -0.21527994 -0.2192138 0.12495111 -0.065899104
0001c0 7f 26 b8 3d 66 c4 ee bd 1a cb a5 be 55 fd 6c be
       0.089917175 -0.11658554 -0.32381517 -0.23143514
0001d0 c0 1f a0 3c c1 16 91 be ad 84 00 be 58 42 99 bd
       0.01954639 -0.28337672 -0.12550612 -0.07483357
0001e0 61 4f f0 be 6b 8c 9d 3d f0 ea 0d bc 64 12 6a be
       -0.4693556 0.07692798 -0.0086619705 -0.22858578
0001f0 30 e8 85 3d d2 59 95 bd 31 da 1f be 2f 95 73 be
       0.06538427 -0.072925225 -0.15610577 -0.23787378
000200 f6 a5 d6 3d 74 af 91 bd 75 42 48 3d b0 87 1f 3d
       0.10480873 -0.07113543 0.048891503 0.03894776
000210 20 4c c4 be 3d 7d e1 3c c8 df 0c bd 5f 47 a5 bd
       -0.3833933 0.027525539 -0.034393102 -0.080702536
000220 0d 36 ef 3d 50 81 fe bd 82 fe 74 bc 6d a0 37 be
       0.11680231 -0.12427008 -0.0149532575 -0.17932291
000230 5c 55 47 3d 6b 00 7f be 3c c9 82 bd f2 ea bb bd
       0.04866539 -0.24902503 -0.06386039 -0.09175672
000240 3f 7c a3 be 9a 0f 38 3e 14 29 84 3d 23 97 29 3e
       -0.3193073 0.17974702 0.064531475 0.1656156
000250 75 18 11 3e f2 fc ca bd 69 f3 d4 be 76 b5 ab be
       0.14169486 -0.09911527 -0.41591957 -0.3353688
000260 00 6e 60 bc fc ae b6 be 02 b6 6b bc 2e e4 bb bd
       -0.013698101 -0.35680377 -0.014386656 -0.09174381
000270 0b 42 0b be 8c 0f 94 be a0 60 26 3d 78 c2 10 be
       -0.13599412 -0.2891811 0.040619493 -0.14136684
000280 e4 33 ec bd 40 06 e1 3c 40 d1 90 bb 11 62 9d bd
       -0.11533335 0.0274688 -0.004419476 -0.0768472
000290 84 ee 56 3d 23 b8 31 3e e5 52 7c 3d ec e3 db 3d
       0.05247356 0.17355399 0.061602492 0.10736832
0002a0 96 74 a3 3d 8c 25 b4 bd 52 92 81 bd 4d bc b8 be
       0.079812214 -0.08796224 -0.063267365 -0.36081162
0002b0 dd a2 5f bd 54 d5 02 bd 27 e4 73 be 26 33 33 be
       -0.054598678 -0.031941727 -0.23817502 -0.1749998
0002c0 4c 40 bf bd ad d8 11 be 0b 54 77 be 3c 02 f1 bd
       -0.093384355 -0.14242812 -0.24153154 -0.11768004
0002d0 5a 9c fd 3c 16 56 bd 3e 68 ae b9 3c b4 24 b7 3d
       0.030958343 0.3697974 0.022666171 0.089425474
0002e0 e9 f1 1d 3e 08 88 86 3d 35 22 03 bf f4 78 14 3d
       0.15424313 0.06568915 -0.5122407 0.036248162
0002f0 08 94 07 bd 7c cd 72 be 48 5b c0 be 98 93 18 bd
       -0.033100158 -0.23711199 -0.37569642 -0.03725013
000300 7b 2a 86 3e 5b 1e 34 3e 20 bf 4a bc c8 fb e0 3d
       0.26204285 0.17589705 -0.012374669 0.109855235
000310 7e 00 bf bc a0 90 f4 bb fe a6 ba 3e 14 c5 d9 bb
       -0.023315664 -0.0074635297 0.3645553 -0.006645808
000320 84 83 e8 bd 93 ae a5 3e e8 79 91 3d c0 73 47 3d
       -0.113532096 0.32359752 0.0710333 0.048694372
000330 cb e4 24 3e 43 0d 90 be 42 9f 9c bd 33 3c 55 bd
       0.16102903 -0.28135118 -0.076475635 -0.052059364
000340 7e 81 43 be 90 e7 2c 3d 00 b5 ab 3e f2 6b ca 3e
       -0.19092366 0.042213023 0.3353653 0.3953548
000350 28 4a e2 bd 6d 35 26 3e 83 a0 78 bd 38 a4 f7 3d
       -0.110493004 0.16231318 -0.06069995 0.12091869
000360 d0 10 20 3d 58 ef 9c be 7c d2 53 3d 0e a5 af bb
       0.039078534 -0.30651355 0.051714405 -0.005360252
000370 54 0c 8a be e4 d9 ba 3d 18 21 a2 bc 7c 5d 71 be
       -0.2696253 0.091235906 -0.019791171 -0.23570818
000380 7e ab fe bd 3d 83 76 3e 7a c8 86 3e f4 98 3a 3d
       -0.12435053 0.24073501 0.26324826 0.045556024
000390 fe 0b 8a 3d 56 40 3d 3d f6 ea cf bd 63 b3 9b 3e
       0.067405686 0.046203934 -0.10152237 0.304103
0003a0 b7 0c 03 3f d6 6c d7 3d 38 5b 1a 3e 98 ac 44 3e
       0.51191276 0.10518806 0.1507386 0.19206464
0003b0 80 71 a0 ba 72 94 26 3e c8 58 0b be 02 73 ef bd
       -0.0012240857 0.16267565 -0.13608086 -0.11691858
0003c0 ce 0d a3 3e c7 c9 35 be 28 15 ce bc 79 01 02 3e
       0.3184647 -0.17752753 -0.025156572 0.12695874
0003d0 0e c8 1e 3d 86 2e b4 bd 22 07 56 bc d0 04 ad 3e
       0.038765006 -0.08797936 -0.013063224 0.33792734
0003e0 20 2a 18 bd a1 2e 90 3e bb ef 5c be 10 cb bb bd
       -0.03714955 0.28160575 -0.21575825 -0.091695905
0003f0 7d 1b 31 3d 88 a6 c9 be 60 a4 1c bd 68 10 92 3e
       0.043239105 -0.39384866 -0.038242698 0.28528142

gru.weight_hh_l0 f4 [192, 64]
000000 1d 6e 89 be 02 ba e2 3d 87 b4 5f be 07 43 aa bc
       -0.26841822 0.110706344 -0.2184621 -0.020783914
000010 e5 2f 21 3e 71 9b 0c be c8 57 38 3e 18 39 14 3e
       0.15740927 -0.13731171 0.18002236 0.14474905
000020 b3 10 69 3d da 99 b5 3b a8 d4 11 be ce 3f b4 bd
       0.05690069 0.005542022 -0.14241278 -0.08801232
000030 e4 20 5f 3d e0 a6 8b be 42 0d eb 3d ee 13 f4 3d
       0.054474726 -0.27275753 0.11477138 0.11917864
000040 d5 6a ea bd ab 0e a4 bd b4 ea 96 bc c4 15 c3 3c
       -0.11446158 -0.0801061 -0.018422462 0.02381409
000050 82 ab 55 bd 46 ca 2e be 9a 27 3e 3d c1 01 35 be
       -0.052165516 -0.17069349 0.046424486 -0.1767645
000060 d0 39 0f be 26 a6 4b 3e 7d ac 27 be e6 43 14 3e
       -0.13986897 0.198876 -0.16374393 0.14479026
000070 e3 8d 8c bd c7 b8 02 be 82 09 52 bd 5a 9c 86 3d
       -0.06863 -0.127658 -0.0512786 0.065727904
000080 f3 b8 05 3e 84 b9 7b 3d ea c5 1a bd d6 c4 0b be
       0.13058834 0.06145622 -0.0377864 -0.13649306
000090 87 b8 c9 bd f1 88 8e 3c bc 25 1f 3e de ed f0 3d
       -0.09849649 0.017399283 0.15541738 0.117641196
0000a0 a7 8a b6 bc af 11 1b bc 64 e8 11 bd 5a 9d 91 3e
       -0.022282911 -0.009464665 -0.035622016 0.28440362
0000b0 16 c7 a3 bd 40 0b 0c 3e de d2 b5 bd 39 61 36 bd
       -0.07996957 0.13676167 -0.0887811 -0.044526313
0000c0 73 b4 0e 3e 17 da 11 3e 2e 99 31 3d 69 ed f3 3d
       0.13936023 0.14243351 0.043358974 0.11910517
0000d0 f4 0b ec bd b5 16 7f 3c 38 4d 36 be ca aa a9 bc
       -0.115257174 0.015569379 -0.17802894 -0.020711321
0000e0 6e 62 65 3d aa d7 14 3e 0e 24 ca be ff 02 f2 bd
       0.056002073 0.14535394 -0.39480633 -0.11816978
0000f0 e3 51 8b be 82 f5 d5 3c 34 05 0a be d2 f4 c8 bd
       -0.27210912 0.026118044 -0.13478547 -0.09812321
000100 34 3b 1a 3d 62 c0 63 be 2f 83 2c 3e 81 73 52 3d
       0.037654117 -0.22241357 0.16846918 0.051379684
000110 89 8a 39 be de cd 52 3d 62 3f 95 bb cc 3a ca bc
       -0.18119253 0.05146586 -0.004554675 -0.02468624
000120 06 d2 4d bd 29 73 d5 bd fb 67 e4 3d ee 8a f6 bc
       -0.050249122 -0.10422356 0.11152645 -0.030095544
000130 5b 36 32 3e 17 90 7d 3d 3d ae 67 3d 82 10 2b 3e
       0.17403547 0.061904993 0.05656265 0.16705516
000140 ec ad a8 bd d5 45 61 bc 95 d6 09 bd ab 54 98 bc
       -0.08236298 -0.013749559 -0.033651907 -0.01859506
000150 6e 57 ce bd 67 09 62 3d 88 77 b1 bd a0 61 d9 3d
       -0.1007527 0.055184748 -0.08665377 0.106143236
000160 62 ee 03 bd 64 84 9c bd 88 2b 49 3c a7 3b 04 bd
       -0.03220976 -0.07642439 0.012278445 -0.03228345
000170 b2 4a ca 3d 38 ee f1 bd a4 ed 72 bc cb 10 64 3d
       0.09877528 -0.11813015 -0.014827166 0.055680078
000180 ed 88 d4 3d 14 cd 41 3e 32 c4 2d bd ff d8 30 3e
       0.10377679 0.18925887 -0.042423435 0.17270277
000190 4d 91 3e 3d 6d 4b 1e 3c 1a 5c 29 be ff 50 fb bd
       0.04652529 0.009661538 -0.1653904 -0.12271308
0001a0 4a fa fd 3c a7 5b 86 bd b6 ce 68 bd b6 5d 13 bc
       0.031003136 -0.0656045 -0.05683776 -0.00899451
0001b0 c4 96 b3 3c 99 27 21 3e 15 83 39 be a1 7d 93 bd
       0.021922477 0.15737762 -0.1811641 -0.07201696
0001c0 a2 b7 50 be 86 22 7b bd 4a 28 6d 3d 59 c0 10 3e
       -0.2038255 -0.06131222 0.05789975 0.14135875
0001d0 f7 61 a1 3c 6a 40 da 3d 11 79 0a 3d 8c a4 b9 3d
       0.019700034 0.10656817 0.033806864 0.09064588
0001e0 61 fd 71 3d 19 e9 b7 3d 6c 9e 99 bd 9c b6 1a 3e
       0.05907953 0.08980007 -0.0750092 0.15108722
0001f0 1f 2f a6 3d 50 bd 64 bd 17 5e 8d bc 98 51 fa bd
       0.081144564 -0.055844605 -0.01725678 -0.12222594
000200 39 07 8b be 61 28 25 be c2 5e 2d bd cc 7d 3d 3e
       -0.27153948 -0.16128685 -0.042326696 0.18505019
000210 74 ea b1 bc f0 7d 41 3c ec 0e 10 3e 17 47 8c 3e
       -0.021718241 0.011809811 0.14068192 0.27397987
000220 e2 f1 9a 3d 01 8c 25 be 5e 75 57 3d 6a d4 6b 3e
       0.07565667 -0.16166689 0.052602164 0.23030248
000230 27 4d d4 3d db fe aa be e7 52 db bd ab d2 80 be
       0.10366278 -0.33397564 -0.10709172 -0.25160727
000240 fc 3a bb bd c2 b8 65 bb 11 f3 39 3e 83 6a 49 3d
       -0.0914211 -0.0035052751 0.18159129 0.049173843
000250 90 9f 24 bd 10 c8 34 be 43 65 98 3e 3b f0 d0 be
       -0.040191233 -0.17654443 0.29764757 -0.4080828
000260 2b 5d d8 bd f2 38 32 3d fb 1d 36 3e 84 31 e0 3d
       -0.105646454 0.04351134 0.17784874 0.10946944
000270 03 5c 8f be 0a 47 71 3e 24 89 bd 3c 9d 05 6a 3e
       -0.27999887 0.23562256 0.023136683 0.22853704
000280 49 aa c2 bd 84 bc 94 bd c4 e9 05 3e c2 88 fa bd
       -0.095051356 -0.07262519 0.13077456 -0.12233116
000290 17 63 0c 3e 96 8e 89 bd 76 be 10 3e ef 73 6c 3e
       0.13709675 -0.06716649 0.14135155 0.230911
0002a0 fa 8c da bd e9 22 c3 3c 73 25 a8 3d 6f 07 6b 3d
       -0.106714204 0.023820357 0.08210268 0.057380136
0002b0 f6 db 96 bd 98 d8 a4 3d 66 10 8f bd 44 7c 0d 3e
       -0.07366173 0.080491245 -0.0698555 0.13816935
0002c0 83 27 82 3e 45 af 33 3e 56 63 fb bc cb 0f ff 3d
       0.2542077 0.17547329 -0.030687016 0.12454184
0002d0 80 4f 0b 3d 50 45 49 be 2a be 89 be 2b 8e 23 3e
       0.034011364 -0.19655347 -0.26902896 0.15972202
0002e0 7c e2 aa bd a4 aa b3 bd 75 1f 41 be 82 ae fa bd
       -0.0834398 -0.087727815 -0.18859656 -0.12240316
0002f0 09 e0 99 bd 31 02 a7 3e f4 01 4f 3e 76 20 ee be
       -0.075134344 0.3261886 0.20215589 -0.4650914
000300 6c 57 86 be b0 4f 3b 3e 0e cb 36 3c 69 08 9b 3c
       -0.26238573 0.18292117 0.01115681 0.018924909
000310 2f c4 59 3e 95 fd 6c bb d6 6a 8d 3e 66 03 8a 3e
       0.21266244 -0.003616189 0.27620572 0.26955718
000320 28 20 a6 3d 55 b5 15 3e fe 51 7f be 0f e5 dd bc
       0.08111602 0.14619954 -0.24933621 -0.027086763
000330 1b 1e f4 3c 8d 8d a6 be 2c 68 db bc e2 af 41 be
       0.029799512 -0.3252987 -0.026783071 -0.1891475
000340 7c f0 8b 3d 87 1c af be 11 7c 97 3e f5 d4 3e be
       0.06832978 -0.34201452 0.29586843 -0.18635924
000350 8e 1c 86 be 5e 8a 38 be 16 80 d5 3d 22 76 73 be
       -0.2619366 -0.18021533 0.10424821 -0.23775533
000360 14 8c 19 3e 03 f4 1b 3e 9a 59 20 3d 6c f7 b4 3d
       0.14994842 0.15229802 0.03914795 0.088362545
000370 b7 7d c2 be 34 7b 06 3e c5 10 2d 3d b0 c3 c8 3e
       -0.37986538 0.13132936 0.04225232 0.39211798
000380 6f 42 3d be 0c 98 8d bc 8c d7 de bd 36 ba 76 be
       -0.18482374 -0.017284416 -0.10880956 -0.24094471
000390 0a d5 0a be ad 92 fe bd aa 17 11 3e 18 e7 8d 3e
       -0.1355783 -0.1243032 0.14169183 0.27715373
0003a0 3d d2 1f be 71 90 d3 3d 06 bb a7 bd 0c 69 ca 3e
       -0.15607543 0.103302844 -0.08189969 0.3953327
0003b0 78 79 27 be a2 7e 89 bc 6f c4 d4 bc 17 3c 61 3e
       -0.1635493 -0.016784016 -0.025972573 0.21995579
0003c0 75 f4 c9 3e 14 0e f3 3e 19 b2 80 be 97 ec 2b 3e
       0.39444318 0.47471678 -0.25135878 0.1678947
0003d0 a2 e6 a1 3e a9 30 90 bd 0a 8e 9a be ac 08 87 bc
       0.3162127 -0.07040531 -0.30186492 -0.016483627
0003e0 c6 0d b8 3d e1 31 d6 3d 5d 7d ac bd 97 bd 92 be
       0.08987002 0.104587324 -0.08422349 -0.2866027
0003f0 98 10 f8 3d 56 ec 9f 3e 54 fd 4b 3e 32 56 9d be
       0.1211254 0.31234998 0.19920856 -0.30729824

gru.bias_ih_l0 f4 [192]
000000 59 4a f6 bc de 1e 98 bd 39 cd 7f 3c 28 fd 0b be
       -0.030064749 -0.074277624 0.015612894 -0.1367079
000010 fc 3b dd bd 48 40 ba bd 03 fb bc 3d c9 d9 7c bd
       -0.10802457 -0.09094292 0.09227564 -0.061731134
000020 6e 57 94 bd 3a 44 a0 bd c2 1a f9 bd ac 14 86 be
       -0.072432384 -0.07825513 -0.12163307 -0.26187646
000030 4a 52 54 be e4 b0 25 3e e1 c2 15 bc fa c5 60 be
       -0.20734516 0.1618076 -0.009140701 -0.21950522
000040 ca c0 10 be 22 a0 a2 bc 22 36 35 bd ca 25 55 bc
       -0.14136043 -0.019851748 -0.04424108 -0.013009498
000050 64 08 5b be 92 b3 67 be 25 59 33 bd da 52 39 3e
       -0.2138992 -0.22627094 -0.043786187 0.18098012
000060 ac 4b ff bd 41 a9 fe 3d 82 d9 99 be 88 71 b0 bc
       -0.12465605 0.12434626 -0.30048758 -0.02153851
000070 be d3 3a be 84 7e b6 bd af e0 ad bd ca 6b 9f be
       -0.18244836 -0.0891085 -0.084901206 -0.31136924
000080 c6 85 1e be d7 17 39 bd ca 7a 08 be 95 57 81 bc
       -0.15480718 -0.04518875 -0.1332809 -0.015788833
000090 c4 32 4a be ec 5a 8a 3d fa 3e a0 be f4 58 1b be
       -0.19745928 0.06755623 -0.31298047 -0.15170652
0000a0 16 8a 53 be bc b4 23 3b 01 40 18 3c 21 7d b1 3d
       -0.20658144 0.0024979552 0.0092926035 0.086664446
0000b0 d3 9c 17 be 12 78 d7 3d 6a 6a b3 bc 42 ae a4 3d
       -0.14805917 0.105209485 -0.021901328 0.080410495
0000c0 11 7d bd bc 4d 71 16 3e fc 27 41 bc 0f a4 00 3b
       -0.023130925 0.14691658 -0.011789318 0.0019629037
0000d0 b4 a3 d7 bd cc 30 95 bc 1b bb 3a 3e c7 d2 25 bd
       -0.10529271 -0.018211745 0.18235438 -0.040484216
0000e0 36 77 0c bc cd 47 3d be 1f bb b5 3c ab 26 2d be
       -0.008573344 -0.18484421 0.022183953 -0.16909282
0000f0 94 e8 0e 3e ba c3 49 3e e6 23 9b bd 95 e8 56 bd
       0.13955909 0.1970357 -0.075752065 -0.0524679
000100 d4 06 5f bd 0e 68 a7 3d b2 91 e5 bd 1a fb ab bd
       -0.05444987 0.08174144 -0.1120943 -0.08397503
000110 0c 07 a4 3a e2 ca 6f be 23 fb df 3d 64 3c cb 3d
       0.0012514307 -0.23417237 0.109365724 0.09923628
000120 1b 88 af be 2a da 56 be 1e 9a 5a be ae f4 07 3e
       -0.34283528 -0.2098166 -0.21347854 0.13276932
000130 cb b6 e0 3d 55 5b 7f 3d 55 48 31 3e 59 91 00 3e
       0.10972365 0.06234296 0.17312749 0.12555446
000140 fe 82 8c 3c e3 22 b6 3d 4e d9 40 3d 0e 39 58 be
       0.017152306 0.08893373 0.047082238 -0.21115515
000150 97 82 f6 bd 6b cd db 3d 60 ce 28 3e 0f c1 5c 3e
       -0.12036627 0.1073254 0.16484976 0.21558021
000160 be 6c 21 3c 47 e6 01 3d 9d a8 c2 3d b2 57 47 3e
       0.009852586 0.03171375 0.09504817 0.19467047
000170 eb 13 7e bc 7b 4d ab 3e 8e 2a 06 be b8 b6 0a bd
       -0.0155076785 0.3345755 -0.13102171 -0.03386566
000180 98 10 00 be 4c f7 60 3d 7f 2c f9 3d a9 30 51 bd
       -0.1250633 0.05492334 0.1216669 -0.051071797
000190 09 1e 05 be af a4 d6 bd b4 15 dc 3e 6a b8 3b 3e
       -0.12999739 -0.1048063 0.42985308 0.18332067
0001a0 e4 9e b7 3c 1f f0 27 3e dc ce a7 3d 45 47 22 3e
       0.022414632 0.16400193 0.08193752 0.158475
0001b0 78 aa 96 be 04 23 9e bd 22 91 b9 bc 3b 56 a2 bd
       -0.29426932 -0.077215225 -0.022652213 -0.079266034
0001c0 93 b0 a1 3b fb 3c 7f 3e dd ba 6a 3d 50 5c 0f 3e
       0.0049343794 0.24925606 0.057307113 0.14000058
0001d0 ee 58 eb bd 0b c1 69 3e 84 2c ae 3d a6 64 02 3e
       -0.11491571 0.22827546 0.085045844 0.12733707
0001e0 ac a1 71 bd e5 7a 34 3d d0 d6 28 bd 73 32 9d bd
       -0.058992073 0.044062514 -0.041220486 -0.07675638
0001f0 14 f5 12 3d 3d 21 5d 3e ab fd a7 3b 29 d7 d4 3b
       0.035878256 0.2159471 0.005126675 0.0064953757
000200 fb c0 e9 bd a3 8b 94 bd e7 31 8c 3d 74 0a c5 bd
       -0.11413761 -0.07253196 0.068454556 -0.096211344
000210 96 eb cf 3d 63 26 b8 3b ec fa 87 ba 5f d2 8e 3d
       0.10152356 0.0056198104 -0.0010374463 0.06973719
000220 03 1a b1 3c 0c 6e 20 3c 40 54 ea bc ef 7b 8e 3d
       0.021618849 0.009791862 -0.028604627 0.06957232
000230 c4 4a d9 3c 1f cd 96 bd b9 c7 bd 3c 85 b0 d1 bd
       0.026524909 -0.073633425 0.023166524 -0.102387466
000240 16 38 0f 3c 9e 5d 9e bb 84 9f a4 3d 72 72 9c bd
       0.008741399 -0.0048329374 0.08038238 -0.07639016
000250 d9 8f 8b bd 34 55 bd bd 07 4c bf 3c f8 e4 64 3b
       -0.06814546 -0.09244767 0.023351682 0.0034926515
000260 c9 3d 0a bd 88 6d 12 bd 3c 48 8e 3d c8 75 f6 3c
       -0.03375033 -0.03574899 0.06947371 0.03008546
000270 4b d4 aa bd 71 2e 38 3d be 21 06 ba af 7a e3 3d
       -0.08341273 0.044966165 -0.00051167223 0.111073844
000280 c8 48 2c bd 75 c9 c9 3d 54 24 45 3d 5e 01 c5 bd
       -0.042061597 0.09852878 0.04813035 -0.096194014
000290 50 54 2c bd 6b f0 d8 3d 95 2b c3 bb c1 d8 9f bc
       -0.042072594 0.10592731 -0.005956123 -0.019512536
0002a0 41 da 96 bd 2e e4 a9 bd d4 7e 4a bc 3d fe 95 3d
       -0.073658474 -0.08295475 -0.01235934 0.07323883
0002b0 f4 2f bc bd 9c ca 26 bb 25 2b 27 3d e4 e7 9b 3d
       -0.09188834 -0.0025450354 0.04081263 0.07612589
0002c0 69 bc 47 3d 8e 84 a1 3d a8 51 a1 bd 1b f9 b9 3d
       0.048763666 0.07886611 -0.07876903 0.09080716
0002d0 88 90 ee 3d c0 45 66 ba 95 b5 c7 3c 8f db da bd
       0.11648661 -0.0008784197 0.024378577 -0.10686409
0002e0 86 f1 16 be 5d 67 e6 3b 74 11 bf bc 27 0a 81 bc
       -0.14740571 0.007031365 -0.023323752 -0.015751911
0002f0 ab 6d b7 3d 45 7d 7d bc 99 53 15 3e c5 9f 8c bd
       0.089564644 -0.015471761 0.14582671 -0.06866411

gru.bias_hh_l0 f4 [192]
000000 42 eb 91 bd 54 ee 6b be 40 14 bf bd 36 29 10 bd
       -0.0712495 -0.23040134 -0.09330034 -0.03519555
000010 90 6d 75 3d 90 af 12 3b fe 26 8e 3d f6 4c 0c bd
       0.05991894 0.0022382475 0.06941031 -0.034253083
000020 7b 30 2d be 66 3d 45 be a5 05 08 be b8 98 72 be
       -0.16913025 -0.19261703 -0.13283403 -0.2369107
000030 c9 aa 50 be f8 d7 3b 3e 8b 5d 01 be dc 53 69 be
       -0.2037765 0.18344104 -0.1263334 -0.22785896
000040 e2 4d 86 be 66 09 14 3d ab ae 28 bd 6d 30 18 3c
       -0.26231295 0.036141776 -0.0411822 0.009288889
000050 b8 12 21 bd 37 7f f9 bc 06 4f da bc cd 96 13 3e
       -0.039324492 -0.030456169 -0.02664901 0.14412995
000060 5f 2f 22 be 2a a6 c1 3c 8b ff 94 be 99 9f 5b be
       -0.15838383 0.023638804 -0.29101214 -0.214476
000070 36 03 e2 bc 75 60 11 be 63 6e 09 be 16 75 35 be
       -0.027589422 -0.14196952 -0.13421015 -0.17720446
000080 a0 2c 67 bd 36 d9 84 bd 75 32 38 be 82 c7 cb bd
       -0.056439042 -0.06486742 -0.17987998 -0.099501625
000090 64 b2 78 be 6d b5 cc bd 43 97 3b be b5 35 6c bd
       -0.242868 -0.09995542 -0.1831942 -0.057668407
0000a0 13 0f 97 bb 9a 11 20 bc f5 54 4a be ec 11 be bd
       -0.0046099513 -0.009769822 -0.19758971 -0.09280762
0000b0 63 a4 28 bd af 2b de bc f7 ec e9 bd 33 58 21 3d
       -0.041172396 -0.02712044 -0.114221506 0.039390754
0000c0 c1 03 92 3d 97 cc be 3d de 34 3c be bb aa 3e be
       0.07129622 0.09316366 -0.18379542 -0.18619816
0000d0 fb 3c f7 bc d3 73 14 3d 8f e0 b5 3d 0a 6e 03 be
       -0.030180445 0.03624327 0.08880722 -0.12834945
0000e0 fb 66 27 bd c4 9e 58 be 63 5e 83 39 c9 4f ba bd
       -0.040869694 -0.21154314 0.0002505659 -0.09097249
0000f0 2d 21 8e bc 24 ac 0d 3e 1a e7 cb bd b8 57 35 bd
       -0.017349804 0.13835198 -0.099561885 -0.04427311
000100 ad d3 f2 bd 9b 7c 01 3e 97 a7 4e 3d 1d 01 31 3d
       -0.1185678 0.1264519 0.050452795 0.043213952
000110 d1 a7 32 be b9 a1 77 be e2 40 89 3e 7a 13 b0 bd
       -0.1744683 -0.24182786 0.26807314 -0.08597465
000120 59 2a 58 be f6 b3 0b be 5a ac 5a be c7 47 49 3d
       -0.21109904 -0.13642868 -0.2135481 0.049140718
000130 05 cb e0 3d c1 16 62 3e 9c ae 28 3d 81 49 f2 3d
       0.10976223 0.22078992 0.041182145 0.11830426
000140 68 ab 73 3d a7 87 4e bd 2e f3 38 3e 4f 88 07 be
       0.059489638 -0.050422337 0.18061516 -0.13235591
000150 96 68 b5 bd a4 02 48 3e 3b 76 e5 3d da 35 33 3e
       -0.08857839 0.19532257 0.11204191 0.17501011
000160 ee c5 7d bd 78 7e 87 3d 33 96 61 3b a7 6f 0b 3e
       -0.06195634 0.06615919 0.00344218 0.1361681
000170 a9 57 29 3e 41 66 7a 3e 21 2e 7d bc c2 0e 18 bc
       0.16537346 0.2445307 -0.0154528925 -0.009280862
000180 af 18 26 be 05 3e ab 3d 6d e2 86 3d 5a 64 8e 3a
       -0.16220354 0.08361439 0.06586156 0.0010863647
000190 d9 11 5b bc 12 3b b7 bd 2f 48 e5 3e 5e 44 8a 3e
       -0.013370954 -0.08946814 0.44781634 0.27005285
0001a0 5e 7a 93 bc 7f 8c c5 3d fe 67 a6 bd 78 a6 05 3e
       -0.018002685 0.09645938 -0.08125304 0.13051784
0001b0 19 c2 96 be 32 cc a7 3d 9b 7a f5 bc c4 8f 5c bc
       -0.2944496 0.08193244 -0.02996569 -0.013462011
0001c0 aa cf a1 bd 0f b6 08 3d c0 f9 31 be 53 f5 1e 3e
       -0.07900937 0.03337675 -0.17380428 0.15523271
0001d0 9e f9 07 be 04 0b 0d 3d a9 4d cb 3d 59 a3 7b 3d
       -0.13278815 0.034434333 0.09926922 0.061435077
0001e0 ed c6 01 3e 3e d7 29 3d 90 48 06 be 02 98 1b be
       0.1267354 0.041465037 -0.13113618 -0.15194705
0001f0 c8 42 63 3c 71 ad 24 3e 5b 12 49 bd 69 df 4c 3e
       0.013870902 0.16081788 -0.04908977 0.20007099
000200 fd 9b 99 bd 64 c7 25 3d ce 41 02 3e 95 45 74 bc
       -0.075004555 0.040473357 0.12720415 -0.014909168
000210 88 cb ab 3d c9 23 3e 3e be b3 e4 bc b6 f2 02 3e
       0.0838843 0.18568338 -0.027917739 0.127879
000220 f3 ff b7 bd 97 30 82 bc f2 5b c2 bc a3 a3 e6 3d
       -0.08984365 -0.01589231 -0.023725484 0.1126168
000230 1b bd 97 3d 08 a1 8d 3d 04 c7 cf 3d 74 bc b7 bd
       0.07409116 0.0691548 0.10145381 -0.089714915
000240 ef ae 13 bd 28 a9 cf 3d 83 21 7f 3d d5 95 60 bc
       -0.0360555 0.10139686 0.06228782 -0.013707598
000250 76 e9 36 bd ec 66 b0 bd eb d2 e7 3d 1a 3b ba bd
       -0.04465624 -0.08613381 0.11319526 -0.09093304
000260 b5 02 2c 3b 2e c8 3b 3b 68 f9 87 3d da 14 86 bc
       0.002624673 0.0028653252 0.06639367 -0.016367365
000270 92 d6 26 be b3 d7 14 bd cc 32 a7 3c c2 9f 1e 3c
       -0.1629279 -0.03633852 0.020409964 0.009681644
000280 b0 23 e0 3c e4 c3 0b bd c9 d7 0f 3e d8 74 23 be
       0.027360767 -0.034122363 0.14047159 -0.15962541
000290 10 a2 3c 3d c0 23 07 bd e9 82 7b bc 59 87 e8 3d
       0.046052992 -0.03299308 -0.015351036 0.113539405
0002a0 2c 48 b7 bd e1 a3 7a bc e4 d1 be 3c d3 1a a5 bc
       -0.089493126 -0.015297861 0.023293443 -0.020154392
0002b0 92 7b 09 be b9 68 58 3d c3 ec 4b bd e5 0d 6e 3d
       -0.13426045 0.052834246 -0.04978634 0.05811872
0002c0 74 75 02 be 1d 2a 5c bd 84 5a 0b be 31 ae 25 bd
       -0.12740117 -0.0537511 -0.13608748 -0.040449325
0002d0 bc c4 94 3c be b0 8a bd 29 d6 c8 bb a1 d8 4d bd
       0.018160217 -0.06771992 -0.0061290455 -0.05025542
0002e0 8c de 97 3d c3 aa 67 3a 71 9d 35 be 6a 1c 6f bb
       0.07415494 0.0008837396 -0.1773584 -0.0036485442
0002f0 23 b5 ce 3c 74 69 66 3d 86 18 9d 3d c1 50 be bd
       0.025232857 0.05625291 0.07670693 -0.09292746

gru.weight_ih_l1 f4 [192, 64]
000000 af f0 98 be cd ba 99 be 08 45 35 3e 01 16 ec bc
       -0.29871127 -0.3002533 0.17702115 -0.028819086
000010 24 04 bf bc 25 83 80 be 10 b8 31 bd 96 86 20 3d
       -0.023317404 -0.25100055 -0.043388426 0.03919085
000020 cc 4c da be b6 65 c7 be 85 ea 8d 3e e7 61 2c 3e
       -0.42636716 -0.38944787 0.27717987 0.16834222
000030 28 25 1b 3d bd c7 87 bd b6 99 05 3e 20 45 b1 bd
       0.03787723 -0.06629894 0.13046917 -0.08655763
000040 a9 d9 7c be d6 f0 01 3e 82 1a 8b 3c 05 cc 68 3e
       -0.24692406 0.12689528 0.016980413 0.22734077
000050 e5 b1 c7 3e 7c c4 07 3d 6d 50 d0 3d fe 43 28 3e
       0.3900291 0.033146366 0.1017159 0.16432187
000060 0c c0 73 be 57 c4 52 be 9d ec 4d 3e 2e 5e 84 3d
       -0.23803729 -0.2058271 0.20109792 0.06463276
000070 59 88 00 3d c6 26 cf bc 96 21 df be ec be 81 bd
       0.03138003 -0.025287043 -0.43580312 -0.063352436
000080 9e 82 c9 3e ff 3d ab bc 9b 22 81 3d 53 9f cb bd
       0.39357466 -0.020903585 0.063054286 -0.09942498
000090 c9 d3 9a 3e ec 48 a1 be 61 42 a9 bd 13 e2 e5 bd
       0.30239704 -0.31500947 -0.08264614 -0.11224761
0000a0 80 3d 12 3e 93 be d2 bc ff f5 7d 3d f7 c2 01 bd
       0.14281273 -0.025725638 0.06200218 -0.031680074
0000b0 80 1b 96 3e f2 0b 87 be 3a ee 06 be 4c d4 19 be
       0.29317856 -0.263763 -0.13176814 -0.15022391
0000c0 14 11 2b 3d c8 3d 18 be be aa 36 3e e4 6e 38 3b
       0.041764334 -0.14867318 0.1783857 0.0028142268
0000d0 b8 07 30 be a6 fe f4 3b e4 1c 1d be 8f c0 7d be
       -0.17190444 0.0074766455 -0.15343052 -0.24780487
0000e0 2f ab 85 be 75 c9 65 be 95 5e 43 be 81 c1 94 3e
       -0.26107165 -0.22440131 -0.19079049 0.29053882
0000f0 24 31 e8 3d cd ea 75 3d 29 c1 9b 3e 7e 4d 0e be
       0.11337498 0.060038377 0.30420807 -0.13896748
000100 c8 aa 70 be 78 dd 66 be 8e 8e 67 bd cd a4 cb 3c
       -0.23502648 -0.22545421 -0.056532435 0.024858857
000110 a9 c8 0b 3c 0c 68 19 3e ea 18 0f 3e d2 da 4d 3e
       0.008531728 0.14981097 0.13974348 0.20103005
000120 d0 54 bf bd 47 7c 42 bd 57 d1 ec bd bc fa 49 3e
       -0.093423486 -0.0474818 -0.11563366 0.19724554
000130 49 e7 ec 3d 84 4e d2 bd e7 06 ba bb 2c e9 50 bd
       0.11567552 -0.10268882 -0.0056770924 -0.05100362
000140 db 77 56 bd 66 10 c8 bc a3 c2 7d 3d 60 26 83 bd
       -0.052360397 -0.024421882 0.0619532 -0.06403804
000150 a0 62 a8 3d 0f 7c 81 bd 2e 5e 72 3e 40 6c 08 be
       0.08221936 -0.063224904 0.23668739 -0.13322544
000160 f9 e6 d0 3c f7 fe 06 3e ef f0 02 bd 82 1d 29 3e
       0.025500761 0.13183199 -0.031968053 0.16515163
000170 ff c3 3f be 25 40 b2 3c 6b 10 3c 3d a6 00 be 3d
       -0.1872711 0.021759102 0.045914095 0.092774674
000180 28 e4 e1 bd 0c 22 f7 3d bc 21 6e 3c 6a 9f 09 bd
       -0.110298455 0.12067041 0.01453441 -0.033599295
000190 fe bc 1d 3e 64 48 fd bd dd f8 00 3e c0 bc fb bc
       0.15404126 -0.12367323 0.12594934 -0.030729651
0001a0 ae 0c 50 be 3a f8 f3 3d 24 13 93 3e 7c c1 62 3e
       -0.20317337 0.1191258 0.2872554 0.22144121
0001b0 f6 0c 87 bd 5a a7 ab bd 3c 4d 97 be af 42 5e ba
       -0.06594269 -0.08381529 -0.29551113 -0.00084785646
0001c0 ed 2d 0e 3d 58 8d 26 bc 15 f5 76 3b 6f 11 50 3e
       0.034711767 -0.010165535 0.0037682701 0.2031915
0001d0 8d 6f 13 bd 74 81 5e be 76 7b f8 bd 69 ef 76 3c
       -0.035995055 -0.2172907 -0.12132923 0.015071728
0001e0 a0 0a 47 3d fd 11 78 3c 0e d9 97 be 22 98 00 3d
       0.048594117 0.0151410075 -0.29657787 0.031395085
0001f0 6e 32 b0 3d f8 c0 9a 3d c1 66 09 3e 2e d3 82 be
       0.08603369 0.07556337 0.13418104 -0.25551742
000200 f3 d2 d6 bd 1e 04 e0 bd 59 7a 08 bd 90 04 2c 3e
       -0.10489454 -0.10938285 -0.033319805 0.16798615
000210 42 4c 96 bc 85 30 f2 bd 0b 28 5f 3e 4b fb 44 bc
       -0.01834691 -0.118256606 0.21792619 -0.012022804
000220 e5 86 b5 bd 47 6d 0c bd ad f0 ac 3d 11 b9 b8 3d
       -0.0886362 -0.034283902 0.08444343 0.090196736
000230 0a 10 49 3c a1 df 41 be 35 4d fc bc 36 76 c4 bd
       0.01227189 -0.18932964 -0.030798534 -0.095928594
000240 f8 1d 3d bc 40 23 a4 3c f3 40 ab bc 20 96 92 bd
       -0.01154279 0.02003634 -0.020904994 -0.0715754
000250 12 be 34 3c a8 ae 3d 3c 12 55 8d 3d 9e 09 5c bd
       0.011031644 0.011577286 0.069009915 -0.05372011
000260 97 91 4b bd ba 63 8c 3d cb e9 8a 3d 84 30 e6 bd
       -0.049699392 0.06854959 0.06782874 -0.11239722
000270 1d a4 38 be db b9 69 bd 9a 95 95 bd b0 1d 8b bd
       -0.18031354 -0.05706201 -0.07303925 -0.06792772
000280 2f 3a be 3d 2b 0f ce 3d e8 1c 27 bd 15 15 61 bd
       0.092884414 0.10061487 -0.04079905 -0.054951746
000290 62 c3 a7 3a 6e 0d 8b be 24 04 ed 3d 82 fe 5d 3d
       0.0012799317 -0.27158684 0.115730554 0.054197796
0002a0 b9 1a 82 3a ee 9c 94 bc e9 66 b6 bc 80 b5 85 3e
       0.0009926177 -0.018141236 -0.022265868 0.26115036
0002b0 31 ca 64 3d dc 77 44 bc 15 31 1e be 17 f4 2b bd
       0.055856887 -0.011991467 -0.15448411 -0.04198083
0002c0 fb 8e 30 3e 9f 3b a4 3e 4a 77 a2 3d fa c8 41 bd
       0.17242043 0.32076737 0.07932909 -0.047310807
0002d0 2c 62 06 bd 26 6c 1a be c5 6b 56 be fb 12 2b 3d
       -0.032808468 -0.15080318 -0.20939548 0.041766148
0002e0 3a f6 32 3e 01 da 92 bc cd 52 0e be d3 89 da bd
       0.1747674 -0.017926218 -0.13898773 -0.10670819
0002f0 ec ab 25 be 15 56 5c 3e 46 0c bd 3c c4 cf f6 bd
       -0.16178864 0.21517213 0.023077141 -0.12051347
000300 2a e0 0b 3d 41 a0 58 be 82 a0 4e 3e e8 3e 92 38
       0.034149326 -0.21154882 0.20178416 6.97354e-05
000310 9a 30 f0 3d 56 1c 64 3e 5d 2c 24 3d 7c 1c a5 3d
       0.1172802 0.22276434 0.04008137 0.080620736
000320 60 01 d6 39 8a 81 34 be 83 be 2e 3e 3b e1 16 3e
       0.00040818285 -0.1762754 0.17064862 0.14734356
000330 e7 d8 2f 3d 70 6a 7d bd b6 f6 17 3e f8 1e 01 be
       0.042931464 -0.061869085 0.14840207 -0.1260947
000340 f5 aa d6 bd 4c c4 89 3d 11 3e e6 3d b0 29 15 be
       -0.10481826 0.06726894 0.11242307 -0.14566684
000350 38 07 d1 3d 00 19 87 be fd ef 1f 3e 73 3b 98 bc
       0.10206455 -0.2638626 0.15618892 -0.018583035
000360 c4 d1 44 3e 6a 68 d8 3c 43 a6 86 bc e5 e1 da 3d
       0.19220644 0.026416976 -0.016436702 0.10687617
000370 2e f7 85 be 40 f9 fd bd 9e 73 24 be d3 d2 f2 3d
       -0.26165146 -0.12401056 -0.1605973 0.11856618
000380 d6 35 7f ba c5 d2 b8 3d 3c 86 44 3e 0b 57 e2 bd
       -0.00097355 0.09024576 0.19191831 -0.110517584
000390 db 8a 3e 3e 36 36 b7 bd ad 2b 3d 3d f3 38 48 bd
       0.18607657 -0.08945887 0.04618423 -0.048882436
0003a0 83 e3 a0 3c 71 58 23 3d 80 d2 56 3e 3f b3 65 3c
       0.019639736 0.039879266 0.20978737 0.014019786
0003b0 bb 2a 29 3e aa a8 8b 3d 7e 77 d5 bd e2 a3 91 bc
       0.16520207 0.068192795 -0.10423182 -0.01777834
0003c0 02 ad 08 be c0 e3 10 3e a6 d5 ad bd e9 0f 4a 3e
       -0.13347247 0.1414938 -0.08488016 0.19732632
0003d0 d1 72 31 3e 5d 15 91 be f5 22 45 3d c9 d4 8e 3b
       0.17328955 -0.2833661 0.04812904 0.004358862
0003e0 79 b0 b1 bd 79 0b 46 3d c4 c4 19 bc b8 64 2a 3c
       -0.086762376 0.048350785 -0.0093852915 0.01039999
0003f0 be 29 c5 3d 07 a0 a5 3c cc 9e aa 3e 6c 7e 3b be
       0.09627102 0.020217909 0.33324277 -0.18309945

gru.weight_hh_l1 f4 [192, 64]
000000 7e 18 50 3d 8b ba c0 3d 2b 7e d1 3d 65 cb a5 3d
       0.050804608 0.0941058 0.10229143 0.08095435
000010 63 82 45 3c 09 9e ca bd f5 62 ff bd 0e 92 fe 3d
       0.012055012 -0.09893424 -0.124700464 0.124302015
000020 41 fb 56 3c aa 0d 65 be 86 40 18 be f5 b1 8e 3c
       0.013121427 -0.22368494 -0.14868364 0.01741884
000030 50 39 b3 bc a2 af 9e 3c 2c aa 65 3c 00 15 24 3e
       -0.021877915 0.019370858 0.014017623 0.16023636
000040 de f6 67 bd 3f d9 c9 3d a9 9a e1 3d 49 ce 2e be
       -0.056631915 0.098558895 0.11015827 -0.17070879
000050 b9 91 cd bd da c0 1f 3e f0 05 84 bc e5 06 02 bd
       -0.1003756 0.15600911 -0.016116112 -0.031744856
000060 7d e2 ac 3c 88 54 41 3e c0 b2 e2 bd aa 25 20 bd
       0.021104092 0.18879902 -0.1106925 -0.03909842
000070 80 d5 c2 3d 2b 6f cb bc e2 33 5f be db 79 58 3e
       0.09513378 -0.024833282 -0.21797135 0.21140234
000080 db 68 f0 3d e8 57 3d 3d 0e 63 25 bd 06 2f a0 3e
       0.117387496 0.046226412 -0.04037767 0.31285876
000090 00 e5 15 bd f9 9b c6 3d 07 84 94 3d c6 76 72 bd
       -0.036595345 0.09697718 0.07251745 -0.059195302
0000a0 a0 93 88 bd 5e d0 c2 3d bb d6 c7 3d 94 2d c2 bd
       -0.06668782 0.09512399 0.097577535 -0.094813496
0000b0 e5 f2 c1 3e d1 78 35 be 8a 6f 87 3e f5 91 09 3e
       0.37880626 -0.17721869 0.26452285 0.13434584
0000c0 3d ef 10 3d 06 09 7b 3d 1c 18 e9 3a 1a 08 38 3e
       0.035384405 0.061287902 0.0017783674 0.1797184
0000d0 7e fa 44 3e 63 b4 64 3e 0d 81 e5 bb 3b 4d 83 3c
       0.1923618 0.22334437 -0.0070039094 0.016028037
0000e0 df 5a b8 3d 9e ac cd 3b 04 50 85 3d 1f 53 47 3e
       0.09001707 0.006276681 0.065094024 0.19465302
0000f0 10 a9 fe 3c 11 aa 54 3e 2c 28 fb bd ce f0 91 3c
       0.031086475 0.20768 -0.122635216 0.01781502
000100 e3 62 9d be 34 cb 64 be 33 01 7f bc 47 da 2a be
       -0.30739507 -0.22343141 -0.015564251 -0.16684829
000110 47 52 29 be ef c1 b3 bd cf b4 fb 3c f7 cc df bd
       -0.16535293 -0.08777224 0.030725865 -0.10927766
000120 db 45 a4 3b 60 a1 80 3c 6f 53 ee bd 23 aa 41 3d
       0.0050132102 0.01570195 -0.116370074 0.047281396
000130 d7 69 9e 3e f5 2d 7c 3e a2 4b 28 3e bf 25 17 3d
       0.30940124 0.24626906 0.16435102 0.03690123
000140 81 d8 40 be 73 33 a8 bd c9 22 96 3d 94 98 13 be
       -0.1883259 -0.08212938 0.073308535 -0.14413673
000150 e1 bb 13 3e 12 13 4c be 2f c4 30 3d 14 0d 62 3e
       0.14427139 -0.1992915 0.043155845 0.22075301
000160 77 3f bd 3d cb b6 aa 3d 31 11 03 be 1d 23 9e 3e
       0.092406206 0.08335646 -0.12799527 0.30886164
000170 3c 96 5a bd ca f1 ad b8 e4 38 26 3e 09 73 c0 bd
       -0.05336593 -8.2943196e-05 0.1623264 -0.09396941
000180 2c f3 55 3d 5a 57 fc bd ba 01 e8 3c aa c5 81 3d
       0.05223386 -0.123213485 0.028321136 0.063365296
000190 21 d4 32 be 19 2e ff bd e1 42 24 be b8 82 28 be
       -0.17463733 -0.12459964 -0.16041137 -0.16456115
0001a0 62 ea ce 3d 64 72 d4 3d 88 b3 f4 bd 13 10 46 3d
       0.10103299 0.10373381 -0.11948305 0.048355173
0001b0 5c 76 79 bd 46 d9 94 bd b5 02 c3 3d ea db 7e 3c
       -0.060903892 -0.07268004 0.09522001 0.015555361
0001c0 66 4c b2 3c 16 b5 28 3e c8 77 e9 3c 37 76 37 bd
       0.021764945 0.16475329 0.028499499 -0.044790473
0001d0 f3 c0 30 3d 4c d1 35 bc 3e fa a7 bd 4b fe 41 be
       0.04315276 -0.011097264 -0.08202027 -0.18944661
0001e0 82 89 d7 3d 17 6e 4d 3e 3d 33 a4 bd b4 6a 67 3d
       0.105242744 0.20061527 -0.080175854 0.056498244
0001f0 d1 93 52 be c2 2c 88 3e bf 4d 5e be 98 e8 74 bd
       -0.205642 0.26596648 -0.21709345 -0.05979213
000200 35 bf fb 3d 5a eb e0 3d fe 27 62 bd e6 bf f3 3b
       0.12292329 0.1098239 -0.05521392 0.0074386476
000210 8a 8c e7 3c 28 8a d0 bd f8 18 1e be 3e 09 82 3c
       0.028265256 -0.10182601 -0.15439212 0.015873548
000220 cf 4b dd bd 5d cb 6a be bd 02 85 bd 66 35 ea 3d
       -0.10805475 -0.2292914 -0.06494663 0.11435966
000230 da 55 ab bd 6c 96 1a bd 6c 0a 50 39 1e 7d ab 3c
       -0.08365984 -0.03774111 0.00019840308 0.020933684
000240 2d 04 ad 3c 47 bd 8a 3d 59 ba 2f be fc a8 49 be
       0.021120155 0.06774383 -0.1716093 -0.19693369
000250 8e 58 0b bd 94 55 ea bd 16 b9 c2 3c d5 d3 c6 bd
       -0.03402 -0.11442104 0.023769896 -0.097083725
000260 94 16 7a bb 88 ff 8a 3c f1 6b cb bd e3 c6 ce bc
       -0.003816043 0.01696755 -0.099326976 -0.025241321
000270 1b ee 21 3e 57 62 2f 3d 32 0f 7a be 51 28 2c bd
       0.15813486 0.042818394 -0.24419859 -0.042030636
000280 bd d4 c7 bc bd d2 25 3e 41 57 37 3b 90 04 87 3e
       -0.024393434 0.16193672 0.0027975591 0.26370668
000290 8f 17 f3 bd ba ce db bd 66 da 07 be 03 b7 23 be
       -0.11869728 -0.10732789 -0.13266906 -0.15987782
0002a0 e6 79 2b bd 36 41 8a bd cc 0f 4a bd 95 3d 13 3e
       -0.0418643 -0.06750719 -0.04933147 0.1437896
0002b0 e6 b5 3c bd 71 ef 13 bd 50 57 c0 bd 8d 26 6b 3e
       -0.04607191 -0.03611702 -0.093916535 0.22963925
0002c0 f3 a4 2d bd e3 2c d7 bd 46 23 1d 3d 64 83 a1 bd
       -0.042393636 -0.10506608 0.038363717 -0.07886389
0002d0 30 21 18 3e ae ac af 3d a2 4e bd 3d 18 9d c4 bb
       0.1485641 0.08577858 0.09243514 -0.0060001723
0002e0 62 96 ab 3c b0 ae 11 3d f0 5e e3 3c 47 28 52 3e
       0.020945732 0.035566986 0.02775523 0.20523177
0002f0 35 9e 2a be 24 9d b9 3d 47 21 98 3d 98 40 61 3d
       -0.16661914 0.09063175 0.07428222 0.054993242
000300 8c 87 f6 3c f6 45 26 bc a7 f9 8c 3d 01 9a 4b bd
       0.03009393 -0.010148516 0.06883555 -0.049707416
000310 5b dd be bd fd 97 69 3e 26 99 7f 3e 34 47 de bd
       -0.09319564 0.22811885 0.24960765 -0.10853425
000320 cb 46 be 3d 5e 61 cc bc eb 10 ba 3c c8 78 82 3e
       0.092908464 -0.024948772 0.022713145 0.25482774
000330 38 76 fd bd 55 09 de 3d e6 2e cc 3d 3b f1 2f 3e
       -0.12376064 0.10841624 0.09969883 0.17181866
000340 93 f8 5c 3c 2d 8d 60 bc fd cd 06 3d d8 0f 66 bd
       0.013486999 -0.013705534 0.03291129 -0.056167454
000350 9b f3 db bd 55 83 97 3c 2d e2 6f bd 54 af 7e 3c
       -0.107398234 0.018495241 -0.058565307 0.015544731
000360 1e 16 d9 3c 2f d2 27 be ff 01 21 3d 89 da 45 3d
       0.026499804 -0.16388772 0.039308544 0.048304114
000370 c7 01 8d 3d 3a 23 8f bd 3c 0b 2e bc da b1 11 3e
       0.068851046 -0.06989141 -0.010622796 0.14228001
000380 fe 69 77 be e2 c1 0d 3d 0e 81 81 3c 40 38 b8 3c
       -0.24161527 0.03460873 0.015808608 0.02248776
000390 7d 66 02 3e 57 31 3e be c0 09 91 bb 2b 10 55 3b
       0.12734409 -0.18573509 -0.004426211 0.0032510858
0003a0 0c d3 54 bd 17 47 59 be 10 6d 29 3d e0 f7 35 3d
       -0.051959082 -0.21218525 0.041363776 0.044425845
0003b0 4f 41 e6 3d 20 6f 11 3e 63 8a b0 bc e4 23 06 be
       0.112429254 0.14202547 -0.021550363 -0.13099629
0003c0 be 93 c5 bc 8b 57 2a be ae f1 80 3d 33 5a e6 3b
       -0.0241183 -0.16634957 0.06296097 0.0070297956
0003d0 9a 17 56 3d 68 1e 50 3d 97 88 aa 3c 8e 9e 1b bd
       0.052268602 0.050810248 0.020817084 -0.037993006
0003e0 0c a0 9e bd 44 90 18 be 7e 83 d4 bd 88 2d d7 3c
       -0.0774537 -0.14898783 -0.10376643 0.026266828
0003f0 c2 82 2a be aa f0 54 3b 3b 9c 5e 3d a2 e3 01 3e
       -0.16651443 0.003249208 0.05434821 0.12684491

gru.bias_ih_l1 f4 [192]
000000 35 e2 43 3e 0e ec d4 bd ac e0 98 3d 42 b2 f6 b9
       0.1912926 -0.10396586 0.07464728 -0.0004705359
000010 cb 0a 1d 3e d2 06 21 bd b9 4d 54 3d c0 22 e0 3d
       0.15336148 -0.039313145 0.051831935 0.10944128
000020 05 de 00 3d bc f9 3d bc d9 98 b2 bc 3f 7f 02 bd
       0.031461734 -0.011595186 -0.021801399 -0.031859633
000030 3e e3 f2 3d 4e 5c 14 be 11 8c c5 3d 73 35 db 3d
       0.11859749 -0.14488336 0.09645856 0.10703554
000040 a0 c0 d3 bd 2f bc 97 3c 97 37 56 3d 56 bf 15 be
       -0.10339475 0.01852235 0.05229911 -0.1462377
000050 bc 49 19 3e 68 8f d3 bd 5d 75 e6 3c 68 63 79 3e
       0.14969534 -0.10330087 0.028132135 0.24354327
000060 8d 12 79 bd 42 25 1e 3e ca 6b 02 3d db e1 b6 bd
       -0.060808707 0.154439 0.031841077 -0.08929797
000070 73 59 29 bd 74 22 cc 3d 62 36 19 bd dc d2 59 3d
       -0.04134507 0.09967509 -0.03740538 0.053179607
000080 bd 33 25 bb 06 2e 20 be 21 ae 66 3e 33 c7 d9 bc
       -0.002520784 -0.15642557 0.22527362 -0.026584243
000090 a1 ed 59 3d d8 95 b4 bd af 03 3f 3e db b5 ac bc
       0.053205136 -0.08817643 0.18653749 -0.02108281
0000a0 ea 06 f0 3d f5 39 c2 3d 7b ce b2 bd 1c 8d dc 3d
       0.11720069 0.09483711 -0.08730789 0.10769102
0000b0 6b 4a 22 be f5 58 b5 3d 61 db 7f 3d 36 58 08 bd
       -0.158487 0.08854858 0.062465075 -0.03328725
0000c0 50 71 87 3d d9 d0 53 be 8a 4d f9 3d bf 44 a8 3d
       0.066134095 -0.20685138 0.121729925 0.08216237
0000d0 f3 47 de 3d 25 0e 0f 3e f1 f3 fd bd 0e d6 82 3d
       0.10853567 0.1397024 -0.12400044 0.06388484
0000e0 73 5c 05 3e a7 67 55 3d 49 19 6d 3c e3 f6 b8 3d
       0.13023548 0.052100804 0.0144713605 0.09031465
0000f0 39 15 ee bd 48 a8 16 be e0 00 1a be 2f 1b 3e 3d
       -0.11625142 -0.14712632 -0.15039396 0.046412643
000100 ac 44 4b b9 cb 62 81 bc 06 bc e1 3c 6b 40 0b 3e
       -0.00019385171 -0.015794178 0.027555477 0.13598792
000110 9c 7b 09 bd 97 c2 a5 3d 9f 0f 9b bc e0 a4 1d 3e
       -0.03356515 0.08093756 -0.018928347 0.15394926
000120 05 7d bb bc 39 5e 99 be f9 d7 a2 be 2a 1c d3 3d
       -0.022886762 -0.299547 -0.318054 0.10308106
000130 3a 33 6a bd fd 1a e4 3d ea a8 5d bd 11 73 70 bd
       -0.05717776 0.1113796 -0.054116167 -0.058703486
000140 26 6d 04 3d 8f b8 9b 3d 08 9e 00 3e 06 2d c7 bd
       0.032330655 0.07603561 0.12560284 -0.097253844
000150 cc 36 1e be 67 52 ae 3e f4 c2 4c 3e 42 b6 88 3d
       -0.15450591 0.34047243 0.19996244 0.06675388
000160 35 e8 37 3e 38 ea ad bd 79 d4 04 be e3 60 0c 3b
       0.17959674 -0.08491939 -0.12971677 0.0021420054
000170 50 6c 7b bd 57 43 3a be 2b a9 bc bc 6c c3 3e 3e
       -0.06138259 -0.1818975 -0.023029884 0.18629235
000180 8b 6d 6d 3e 67 31 83 3c db 73 12 be 7e 17 e1 bd
       0.23186319 0.016014768 -0.14302008 -0.10990809
000190 b7 63 84 bc 5b 88 70 3c 00 33 b9 3d f8 32 08 bd
       -0.016160829 0.014680947 0.090429306 -0.033251733
0001a0 44 3b 20 be 33 f2 e8 bd a9 d3 22 3e d5 65 3d bc
       -0.15647608 -0.11374321 0.15901054 -0.011559923
0001b0 58 9d df 3e 66 71 33 be be 83 00 3e 3d ba 83 be
       0.4367473 -0.17523727 0.12550256 -0.25728026
0001c0 a9 ea cc 3d ea 02 5b 3e fa 30 3a be 39 1c 77 be
       0.100056954 0.2138783 -0.18182746 -0.2413186
0001d0 95 90 3f be 5a f4 90 3d 49 77 db 3d fd c9 19 3d
       -0.18707497 0.07077856 0.10716111 0.037546147
0001e0 39 03 eb 3c 50 cf 83 bd 64 13 48 be 90 89 32 bd
       0.02868806 -0.06436026 -0.19538647 -0.04358822
0001f0 78 ae 21 3e 12 9b f9 3d 8a 0c 03 3e 2f 9e ac 3d
       0.15789211 0.121877804 0.12797752 0.084286086
000200 7e 6c ba 3d f0 2f 7c bc a4 8b ad bc d3 1f 4a 3d
       0.091027245 -0.015392289 -0.02118475 0.049346756
000210 ad 65 b9 3d f3 41 a7 bd 6a 75 9c bd c5 ff 9d 3d
       0.09052596 -0.08166876 -0.076395825 0.077148
000220 8d d5 7c bd cd a5 35 3d 4f 62 a1 bd ea a8 11 3d
       -0.061727095 0.044347573 -0.07880079 0.03556148
000230 4c d8 0b 3d 54 df 84 bd a2 5e 85 3d 73 17 ab bd
       0.034141824 -0.06487909 0.065121904 -0.08354082
000240 d1 cf 8d bd 90 c6 b2 3d 8d 52 c1 3d 74 aa d2 3d
       -0.069244035 0.08729279 0.094395734 0.102864176
000250 4e eb 24 bd 00 43 52 3d 6a 28 d0 3d 91 7e 0a 3c
       -0.040263467 0.051333427 0.10163958 0.008453027
000260 89 f7 86 bd e8 29 b5 3d 96 8f 0a bd 50 82 f5 3d
       -0.06590182 0.088458836 -0.03382834 0.11987746
000270 e0 7f 87 3d bd e1 e0 3d 49 30 8b 3d fe 44 7e 3d
       0.06616187 0.10980556 0.06796319 0.062077515
000280 b7 fc d8 3c f0 a5 35 bd f3 3f cf 3d 9b 47 1a 3d
       0.026487691 -0.044347703 0.10119619 0.037665945
000290 95 f6 7a bb a6 ef 00 bb 3e 71 95 bd c9 1a 81 bc
       -0.0038293947 -0.0019674092 -0.0729699 -0.015759842
0002a0 7d a4 be bd 27 49 e9 3d e1 2d ab 3b b2 30 e4 3c
       -0.093087174 0.11390906 0.005223975 0.027855251
0002b0 0f 31 33 3d ed 7a e0 3d 07 ac 42 bd ac 3d a3 bd
       0.043747958 0.10960946 -0.04752734 -0.07970747
0002c0 6b 90 f0 3d 61 e6 f0 ba 4c 0c 9c bd 8e bd 05 3e
       0.117462955 -0.0018379205 -0.07619533 0.1306059
0002d0 3e f3 87 3d e2 c0 5e 3d cf 2c 4c bd ae 00 20 3d
       0.06638192 0.054383166 -0.04984742 0.03906315
0002e0 c6 67 08 3d d6 08 88 bd 99 60 06 3e 94 cd 27 bd
       0.03330209 -0.0664231 0.13122787 -0.04096754
0002f0 c9 3e 06 3d 44 4f 4e 3d b8 29 a5 3b 8d 2a 06 3c
       0.03277472 0.050368562 0.0050403737 0.008188856

gru.bias_hh_l1 f4 [192]
000000 70 d8 e6 3d a0 61 61 bd 45 cd 01 bc 86 cc 2e 3d
       0.11271751 -0.055024743 -0.007922475 0.042675517
000010 88 29 7f 3d 66 f4 f9 3d 2f d1 22 3c 2f 88 0c bd
       0.062295467 0.122048184 0.009937569 -0.034309562
000020 b5 0d 1c 3d bc 53 3b 3e 1d ef 1d 3e e1 3a 7a 3d
       0.03809901 0.18293661 0.15423246 0.061091308
000030 b7 57 06 bd d4 40 d3 bd 28 6a 03 3e e5 c4 2a 3c
       -0.032798495 -0.10315099 0.12833464 0.01042292
000040 22 b7 9a bc 2f 71 56 3d bc 20 33 3e eb 2d c8 3c
       -0.018886153 0.052354034 0.17492956 0.024435958
000050 fc 7e 80 3d 75 e8 98 3d 5e c8 3e be 9c ba 6d 3e
       0.0627422 0.07466213 -0.18631122 0.23215717
000060 c3 9c a5 3d b0 34 16 3e d5 05 6f 3c 24 ff 52 bc
       0.080865405 0.14668536 0.014588793 -0.012878213
000070 db 75 d0 3d 26 1b 0d 3e 3a 1f e8 bd dd 43 e1 3d
       0.10178729 0.13779888 -0.11334081 0.10999272
000080 a4 91 40 3d f2 9a 89 bd f1 5b ac 3d 4e 1f 0f 3e
       0.047013894 -0.067190066 0.08415974 0.13976786
000090 85 8a 92 3d bc 57 ab bd df 7f 53 3c a1 3a ba bb
       0.07155327 -0.083663434 0.012908905 -0.0056832586
0000a0 b0 16 7b bd 95 e1 e9 3d 55 e2 a0 bd 4a 3c 8d 3d
       -0.061300933 0.114199795 -0.078556694 0.06896265
0000b0 42 c0 44 bd 35 35 51 3e 20 a4 01 be 46 f6 19 bd
       -0.048034914 0.20430453 -0.12660265 -0.03758838
0000c0 e8 7d 52 ba 1b 5e 5c bd 40 bc 00 3e 55 7d 51 bc
       -0.0008029626 -0.053800683 0.12571812 -0.012786229
0000d0 bc 64 30 3e b0 08 83 bb 3d 1c fa bd 66 af bf 3d
       0.17225927 -0.0039988384 -0.12212417 0.093596265
0000e0 ed aa ce 3d ab bd 3f 3e f8 fd 0a 3e 6a d9 04 3e
       0.10091195 0.18724696 0.13573444 0.12973562
0000f0 b5 56 9f 3d 4f ca 43 bd 3f 75 8e bd 39 75 93 3d
       0.0778021 -0.04780036 -0.06955957 0.07200093
000100 70 8b 9a bd 49 25 27 be e4 2a d2 3d e4 00 af bc
       -0.07546127 -0.16322817 0.10262087 -0.02136273
000110 16 95 0b be 28 07 05 3d c5 25 37 bd a1 2b 1e 3e
       -0.1363109 0.032477528 -0.044713754 0.1544633
000120 48 0e 09 be af 10 2c be 5c f3 aa be 51 3f 1d 3e
       -0.13384354 -0.1680324 -0.33388793 0.15356185
000130 42 5d a4 bc 07 a4 d9 3d 98 5d aa 3c 0f 56 ac bd
       -0.020064 0.10626989 0.020796582 -0.08414852
000140 5f 91 d1 3d 46 f3 4a 3d dd 18 24 bd 40 8c 07 3e
       0.102328055 0.04954841 -0.040062774 0.13237095
000150 ea b9 64 be 79 1f 95 3e 78 d8 bc 3c ca c9 ea 3d
       -0.22336546 0.29125574 0.02305244 0.114642695
000160 a3 d7 4b 3d 9f d5 89 bd 0f bc d9 bd d9 12 1f be
       0.049766194 -0.06730198 -0.106315725 -0.15534534
000170 ca b6 db 3b 3f 8d a9 be f4 e4 49 bd 3c 53 b5 3b
       0.0067051398 -0.33115575 -0.049290612 0.005533604
000180 fc d2 cf 3d 29 8d 28 bb 91 fc 56 bc 49 b4 50 bd
       0.10147664 -0.0025718904 -0.01312174 -0.050953183
000190 55 60 78 bd bd bc 0c 3e 2b 0a c9 bc 93 f0 54 bd
       -0.060638744 0.13743873 -0.024540981 -0.051987242
0001a0 46 e4 48 be 83 c4 36 be ab 37 65 3e 4b 97 33 bc
       -0.1961833 -0.17848401 0.22384517 -0.010961364
0001b0 55 58 04 3f 46 a0 11 be a7 a5 6e 3e 5f 36 08 be
       0.51697284 -0.14221296 0.23305379 -0.13301991
0001c0 41 fa 02 3e e8 b2 81 3e 62 a1 4e be 7f 47 b4 bc
       0.12790777 0.25331807 -0.2017875 -0.022006748
0001d0 c9 68 8b be a4 c0 9f 3d 0c 29 ad 3d 98 24 b6 3d
       -0.27228382 0.07800415 0.08455095 0.088936985
0001e0 ff a5 42 bd 6e a8 54 3d 5c 87 50 be 57 7d 90 bd
       -0.047521587 0.05191844 -0.20364136 -0.07055157
0001f0 8a ee 2c 3e 62 1d 6f 3e 2f 7e 80 3c 98 80 ca 3d
       0.1688787 0.23351052 0.015685169 0.098878086
000200 01 d0 c6 bd ff b7 37 3d 87 28 b0 3c c5 73 7c bc
       -0.09707642 0.044853207 0.0215037 -0.015408461
000210 da d0 31 3d f8 67 2b bc da 78 eb 3d 01 ca 11 bc
       0.043412067 -0.0104618 0.1149766 -0.008898259
000220 12 cd 0d 3d 61 a3 87 bd 13 1a c8 bc 55 17 98 bd
       0.0346194 -0.06622959 -0.024426496 -0.07426325
000230 d4 1f d3 bc 17 be 07 3d 71 d3 4e bd f4 2e 2c 3d
       -0.025772013 0.03314027 -0.050494615 0.042036965
000240 57 f8 0d 3c ff 3a ba bb e2 36 a9 bd 4e 33 02 3d
       0.008665166 -0.0056833024 -0.08262421 0.03178721
000250 29 91 99 bd 0c 06 39 3c 7e 6e 75 bd b7 74 58 bc
       -0.0749839 0.011292946 -0.059919827 -0.013211421
000260 04 20 6a 3d 42 09 2d bd 6b 3f b5 bd 82 03 2a bc
       0.05715944 -0.042245157 -0.08849987 -0.010376813
000270 f1 ad bb bd 4b 98 8f ba 15 67 df bd 4a e0 8f 3c
       -0.09164036 -0.0010955421 -0.10908333 0.017563004
000280 70 c1 10 bc 52 e5 15 bd fc 85 ad bd c8 ca 75 3d
       -0.008835182 -0.03659565 -0.08472821 0.06000784
000290 9e 54 21 bd c3 31 17 bd 0d 75 27 bd b4 91 81 3c
       -0.039387338 -0.03691269 -0.040883113 0.015816547
0002a0 54 ab 5d bd a1 d4 fd 3c 16 73 fd 3d da 0c 37 3d
       -0.05411847 0.030985178 0.123754665 0.04468999
0002b0 2e 88 e4 bc 18 9e d5 bd 3c 37 f5 3c b5 48 24 3e
       -0.027896967 -0.104305446 0.029933564 0.1604336
0002c0 e9 d5 10 bd ac 5a ed bd 67 8e 3f 3c a4 3d 3c bc
       -0.03536025 -0.1158956 0.011691666 -0.011489306
0002d0 fd 2d 93 3d 8d 5e 06 bc 60 94 a2 3d 58 4b b3 bd
       0.07186506 -0.008201254 0.079384565 -0.08754605
0002e0 15 93 32 3c 51 a7 ba 3b 9a a4 76 bd 2f 0b 8e 3d
       0.010899325 0.005696215 -0.06021557 0.06935727
0002f0 5f 87 8e 3c ec 20 d6 bd 7a 2f 27 bd 44 07 31 3d
       0.017398534 -0.10455498 -0.04081676 0.04321982
