trained_models/multisteplstm_model.pth (torch, 209687 bytes, 11 tensors)

lstm.weight_ih_l0 f4 [256, 3]
000000 cc e6 2f be 6c c1 50 bd 20 e5 ef bc b9 94 a1 3d
       -0.17177886 -0.05096571 -0.02928406 0.07889695
000010 1b 17 3e be 38 a2 ce 3c 3e 1b 91 be e3 a0 25 3e
       -0.18563502 0.025223836 -0.28341097 0.16174655
000020 cc ac e1 3d f0 86 ba bd 16 19 02 be b0 a6 bf 3c
       0.110192865 -0.091077685 -0.12704882 0.023394912
000030 ae f4 f8 bc 1e 1b 45 3d 5c e1 76 3d 37 a8 9f be
       -0.03039011 0.048121564 0.060273513 -0.31183025
000040 23 63 f8 3d 38 5b 97 3c 08 66 fd be e3 5c 37 be
       0.12128284 0.018476114 -0.49491906 -0.17906527
000050 ac e5 6b bd 32 81 53 be bf 3f 35 be ae d2 a9 3d
       -0.05759208 -0.20654753 -0.17700098 0.08292137
000060 bb 1a 82 be bf d3 ad 3d 6c 93 10 bd 8a b5 72 be
       -0.2541102 0.08487653 -0.035296842 -0.23702064
000070 08 67 20 ba 8a d8 fc bd af fa 4a 3e a6 3a bc 3d
       -0.00061188685 -0.12345989 0.1982219 0.09190874
000080 96 a3 c5 3d 5e 65 08 be cf 4f 49 bd f8 31 9e 3d
       0.09650342 -0.13319919 -0.049148377 0.077243745
000090 0d 3f 66 bd 4e 4d 49 be 00 e3 5f 3c e9 df 91 be
       -0.056212474 -0.19658396 0.013664961 -0.28491142
0000a0 c8 b2 cf bd 08 d8 0a bd f7 ad d8 bd c1 b4 28 3d
       -0.10141522 -0.03389743 -0.10580056 0.041188005
0000b0 b6 fb 93 3d c0 11 a2 be 01 23 63 be 70 38 b7 3c
       0.072257444 -0.31654167 -0.22181322 0.022365779
0000c0 ff fe 19 3d cf 68 aa be a4 6a fd bd 16 3d 0a be
       0.0375967 -0.33283088 -0.12373856 -0.13499865
0000d0 ba 66 c2 bc d6 0e d2 3d af 6c 96 bd c4 fd 23 bd
       -0.023730624 0.10256736 -0.073449485 -0.04003693
0000e0 fc ec 21 3d 07 f7 bf bc f8 d6 a9 bd 38 e4 b5 bd
       0.039532647 -0.023433222 -0.08292955 -0.0888142
0000f0 9c 94 ab bc 7a 35 d0 bd 50 e0 1d 3d d8 c7 6c be
       -0.020944886 -0.1016645 0.038544 -0.2312311
000100 a3 4d fc bd 78 57 d5 bc 0c c3 37 3e 70 65 f7 bd
       -0.123194955 -0.026042685 0.17945498 -0.120798945
000110 8a ad 98 bd 40 5a 8a be 8c 50 c7 b9 e4 9f 2a 3d
       -0.07454975 -0.2702198 -0.0003801625 0.04165639
000120 27 fa 03 bb 4c bb 0d be 98 eb fd bd 89 48 9c be
       -0.0020138116 -0.1384098 -0.123984516 -0.3052409
000130 09 2c e9 be 6c 61 4f 3d 99 0f b3 3d 94 08 1c 3e
       -0.4554141 0.050630018 0.087432094 0.15237647
000140 74 34 84 bd 97 05 bf be 29 d9 b2 3d e4 f3 4e bd
       -0.06455317 -0.37308952 0.08732826 -0.05052556
000150 d9 0f 86 be 52 c6 f0 3c 9a 71 92 3d 98 d7 90 be
       -0.26183966 0.029391441 0.07150574 -0.28289485
000160 02 32 d5 bd c4 18 1c 3d 92 0d e2 bc 10 a4 60 3e
       -0.10409929 0.038109556 -0.027594361 0.21937585
000170 02 98 98 3d 2f 22 a5 3c c5 b1 0a 3e 96 ab 88 bd
       0.07450868 0.020157902 0.13544376 -0.066733524
000180 ba e4 0a 3e 2e 91 6c be 2c 83 35 bd 41 ec d3 be
       0.13563815 -0.23102257 -0.04431455 -0.41391185
000190 b3 8a 66 be 88 cc ff 3c 43 71 a5 bd 2e a5 55 be
       -0.22513847 0.031225458 -0.080782436 -0.20863792
0001a0 40 28 40 3b 3f 57 91 be 9f 1b 97 be 3a f8 8c bd
       0.0029320866 -0.28386876 -0.2951326 -0.06883283
0001b0 7a a0 34 be 9c e6 46 bd 5e e6 ff 3d 41 28 d8 bd
       -0.17639342 -0.04855977 0.12495111 -0.10554553
0001c0 71 4f 04 3e 66 c4 ee bd d6 7e a3 be 13 0c 96 bd
       0.1292093 -0.11658554 -0.31932706 -0.07326522
0001d0 c0 1f a0 3c a6 47 ac be 64 d0 50 be 58 42 99 bd
       0.01954639 -0.33648413 -0.20391995 -0.07483357
0001e0 92 8e c5 bd db 92 2e be f0 ea 0d bc a8 e8 62 be
       -0.09646334 -0.17048208 -0.0086619705 -0.22159064
0001f0 da 62 c5 be d2 59 95 bd 61 0b 8c bd 94 2c aa be
       -0.3855198 -0.072925225 -0.06838108 -0.33237135
000200 f6 a5 d6 3d 0e c6 0f be c4 6c b4 3c b0 87 1f 3d
       0.10480873 -0.14040396 0.02202452 0.03894776
000210 09 03 47 be af 11 8c 3d c8 df 0c bd 29 90 c1 be
       -0.19434752 0.068393104 -0.034393102 -0.37805298
000220 4d 82 c7 be 50 81 fe bd fa 51 fe bc 5f ee 9d be
       -0.389666 -0.12427008 -0.031044949 -0.30845925
000230 5c 55 47 3d 41 17 d4 bd 39 88 ad 3e f2 ea bb bd
       0.04866539 -0.10355998 0.33892992 -0.09175672
000240 40 91 80 be ee 28 31 be 14 29 84 3d f1 da d7 3c
       -0.25110817 -0.1730077 0.064531475 0.026349517
000250 c9 6a 07 3b f2 fc ca bd 58 fc c8 bd 05 72 a9 be
       0.0020663014 -0.09911527 -0.09813756 -0.33094802
000260 00 6e 60 bc 38 68 9d be c6 60 67 3e 2e e4 bb bd
       -0.013698101 -0.30743575 0.2259551 -0.09174381
000270 65 d5 13 be 33 b4 65 bd a0 60 26 3d 28 41 85 be
       -0.14436872 -0.056080054 0.040619493 -0.26026273
000280 5f 4b 1b 3d 40 06 e1 3c 37 b9 3d be 18 22 4f be
       0.037913676 0.0274688 -0.18527685 -0.2022785
000290 84 ee 56 3d 63 d0 c9 3d 21 5c 10 3d ec e3 db 3d
       0.05247356 0.098542 0.03524411 0.10736832
0002a0 80 f1 f1 bd 6b c7 44 bd 52 92 81 bd 95 3a 36 3c
       -0.118136406 -0.048041742 -0.063267365 0.0111223655
0002b0 7c 9f 91 bd 54 d5 02 bd 09 f7 7d be b9 cf 44 be
       -0.07110497 -0.031941727 -0.24801268 -0.19219865
0002c0 4c 40 bf bd 55 08 a7 3c 51 54 46 bd 3c 02 f1 bd
       -0.093384355 0.020389715 -0.048420254 -0.11768004
0002d0 7e 07 13 be 20 bf 34 bd 68 ae b9 3c 98 8f 04 be
       -0.14358327 -0.044127584 0.022666171 -0.12945402
0002e0 08 3d 8a bc 08 88 86 3d e1 fc 84 bd 36 5c 4f bd
       -0.016874805 0.06568915 -0.06493545 -0.05062505
0002f0 08 94 07 bd ed d5 51 be d8 a1 a4 bd 98 93 18 bd
       -0.033100158 -0.20491762 -0.08038682 -0.03725013
000300 14 3b b7 3d 76 6c 53 3e 20 bf 4a bc 42 97 fd 3c
       0.08946815 0.20646843 -0.012374669 0.030955914
000310 de 7e 7b 3e a0 90 f4 bb e7 19 8c 3d e9 93 05 3f
       0.24560115 -0.0074635297 0.06840878 0.5217882
000320 84 83 e8 bd 06 9f 38 3e 68 30 d0 3b c0 73 47 3d
       -0.113532096 0.18029413 0.0063534267 0.048694372
000330 86 7d 66 be 8f 21 b3 bd 42 9f 9c bd bb 40 87 be
       -0.22508821 -0.08746635 -0.076475635 -0.26416573
000340 0d a3 f7 3d 90 e7 2c 3d b7 55 10 bd 8f 1d 18 bd
       0.12091646 0.042213023 -0.035237994 -0.037137564
000350 28 4a e2 bd f7 9f 4b 3c 4a 7e 33 bd 38 a4 f7 3d
       -0.110493004 0.012428275 -0.04382161 0.12091869
000360 f6 fe 8d be 39 55 f3 bc 7c d2 53 3d c4 c8 3c be
       -0.27733582 -0.029703723 0.051714405 -0.18435961
000370 07 cc 64 bd e4 d9 ba 3d bd 82 93 bc ac 99 53 be
       -0.05585864 0.091235906 -0.018006677 -0.2066409
000380 7e ab fe bd f3 56 0e 3d fe 89 ab 3d f4 98 3a 3d
       -0.12435053 0.03475089 0.08375929 0.045556024
000390 5e 14 9b bd d3 6e b8 be f6 ea cf bd 46 f4 29 3e
       -0.07572244 -0.36022052 -0.10152237 0.16597089
0003a0 d6 f2 2e 3c d6 6c d7 3d 80 ee 19 3d 7d 9b cc 3d
       0.010678014 0.10518806 0.037580967 0.099905945
0003b0 80 71 a0 ba 4c 9d b2 be 67 88 82 be 02 73 ef bd
       -0.0012240857 -0.34885633 -0.25494692 -0.11691858
0003c0 3a 07 5c 3d f0 c0 1e be 28 15 ce bc 7b b2 31 be
       0.05371783 -0.15503287 -0.025156572 -0.17353241
0003d0 aa d3 a4 bd 86 2e b4 bd 17 21 66 be 2f 29 8d bd
       -0.08048184 -0.08797936 -0.2247356 -0.06892621
0003e0 20 2a 18 bd ee 5c a2 3e 4e 96 ba bd 10 cb bb bd
       -0.03714955 0.31711525 -0.091106996 -0.091695905
0003f0 b4 6d 39 3d e7 47 45 be 60 a4 1c bd 13 c2 ae bd
       0.045270637 -0.1926571 -0.038242698 -0.085331105

lstm.weight_hh_l0 f4 [256, 64]
000000 6a 26 46 3d 3d 19 9d 3c cd ba ff bd 46 de 8d 3e
       0.04837648 0.019177074 -0.12486801 0.27708644
000010 00 4d 2d 3e 8c b8 c7 3d 46 b6 8c be 40 3c 0f be
       0.16923904 0.097519964 -0.27482814 -0.13987827
000020 0f 35 4a 3e 8c e5 63 3e a1 33 1b be c8 43 93 3d
       0.19746803 0.22255534 -0.15156414 0.071906626
000030 42 dc 91 be ce 8c 8d 3d 8b 9c b1 bd c7 a7 15 be
       -0.28488356 0.06911622 -0.08672436 -0.14614783
000040 d1 7b ad bc a6 6c a2 be f7 6e 68 3e 5f 80 6a bd
       -0.021177204 -0.31723517 0.2269858 -0.05725133
000050 7b 17 2e be b2 db 83 3e e7 8a f4 be ec 17 80 3c
       -0.17001145 0.25753552 -0.47762224 0.015636407
000060 1e 09 19 3e 15 c9 95 be 0d 3b 04 be 1c ab 5c be
       0.14944884 -0.29254976 -0.12913151 -0.21549648
000070 10 dd c2 bc 49 76 9b bd 32 84 19 3d 2d e1 a5 3e
       -0.023787051 -0.075909205 0.037479587 0.32398358
000080 e2 a8 72 bc 9f 9d 87 be 6d e4 59 be 17 b3 9a 3e
       -0.014810773 -0.26487443 -0.21278544 0.3021476
000090 57 7c 8a bd 26 f9 f1 bd 8c f1 89 3d 65 92 ef 3d
       -0.06761997 -0.118150994 0.067355245 0.116978444
0000a0 66 cf 04 3e 20 5d 37 3e 29 83 64 3d c6 62 e6 bc
       0.12969741 0.17906618 0.055789147 -0.02812327
0000b0 d6 8a 79 3d b7 2e cc 3d a5 43 51 3e fb 98 4d 3e
       0.06092342 0.09969848 0.2043596 0.20077889
0000c0 1b ef 72 3e 3e 6b e2 3d 46 7d fa 3d 15 13 33 3d
       0.23724024 0.11055611 0.12230925 0.04371937
0000d0 a1 c8 0f bc 81 a3 ee 3c ad d7 a4 3d 66 f8 e6 be
       -0.008775861 0.0291307 0.080489494 -0.45111388
0000e0 f3 64 86 3e 1a c6 a2 3d 5f a6 e1 3d 97 58 11 3c
       0.26248893 0.07947941 0.11018061 0.008871219
0000f0 f1 a1 9a 3d f0 05 51 be 5b 37 cc 3d 59 9b 02 3e
       0.07550419 -0.20412421 0.09971496 0.12754573
000100 eb cd 80 be 6c e3 61 3e 00 18 cd be b4 5c 93 be
       -0.25157103 0.22059411 -0.40057373 -0.28781664
000110 5a 88 67 be 47 4a 78 bc 5d b6 f5 3d a2 b1 9f 3e
       -0.22610608 -0.015154428 0.11997674 0.3119021
000120 35 d2 80 be bc 81 56 be 19 0b e9 bd 53 00 69 3c
       -0.25160375 -0.20947927 -0.1137907 0.014221269
000130 66 8e 55 3e ae 23 c3 be 18 db 88 3e 38 6d 41 3e
       0.20855102 -0.3811316 0.26729655 0.1888932
000140 3a 5e 9f 3e fb 9a 1d 3d b9 88 24 3d 02 16 ac be
       0.31126577 0.03847788 0.04016945 -0.3361054
000150 ec 6d 61 be 62 30 72 be ae a5 8d 3e cf 98 6c bd
       -0.22014588 -0.23651269 0.27665466 -0.057762917
000160 22 ac 3f be 83 5e 92 3e 05 42 2f 3e cf 6c 05 3e
       -0.18718007 0.28587732 0.17115028 0.13029788
000170 0c ea 95 3d 8d 07 b4 be ac f2 ac 3c 11 f3 52 be
       0.073200315 -0.3516201 0.021111809 -0.20600535
000180 cc e1 82 be 85 80 be 3e de 57 15 be 4a 61 85 be
       -0.25562894 0.37207428 -0.145843 -0.26050788
000190 76 eb bc bd eb b1 1c 3e 3b c5 e6 bd f3 24 54 3e
       -0.09224598 0.15302245 -0.112680875 0.2071722
0001a0 09 3a b1 be 33 e5 c8 bc 82 ed c2 bd 25 3e 84 3e
       -0.3461459 -0.024523353 -0.09517957 0.25828663
0001b0 55 5d e0 3d 2c 1b 41 3c f9 fa 48 3e bb f6 bf bd
       0.10955302 0.011786263 0.19626988 -0.09373232
0001c0 53 2a 5b be be 5f 91 3e 74 64 39 be 52 48 94 3e
       -0.21402864 0.28393358 -0.18104726 0.28961426
0001d0 c3 9d a3 3e 6d 35 b7 3d 5f 0d 4a be a4 a6 65 3d
       0.319563 0.08945737 -0.19731663 0.056067124
0001e0 83 da be be 0a 3d 46 3e 5f c7 4f 3e 5d f4 b0 be
       -0.37276086 0.19359222 0.20290898 -0.34561434
0001f0 eb 75 a9 bd 4e 8a c2 3e ef 4b 02 3f a0 e7 82 be
       -0.08274444 0.37996143 0.50897115 -0.2556734
000200 4a 81 e7 bd 49 e2 14 3e 42 bf 85 be 66 52 e2 bd
       -0.11303957 0.14539446 -0.2612248 -0.110508725
000210 f6 39 a6 bd da 67 19 be ea 06 02 3e 4e dc 19 3e
       -0.08116524 -0.14981022 0.1269795 0.15025446
000220 17 29 93 be 32 df b1 bd 8a 43 26 3d 4a b3 7e 3e
       -0.28742287 -0.08685149 0.040591754 0.24873081
000230 e9 0d c4 3d 58 7f 29 be 87 ff 36 bd a8 06 63 3d
       0.09572966 -0.16552484 -0.044677284 0.05542627
000240 9d 14 a2 3d 4c 68 71 3e 46 f7 40 3d 9e 52 6c bd
       0.07914088 0.23574942 0.04711082 -0.057695977
000250 a7 55 81 3d ff cd 9d bd fa 7e 0d 3e f5 7e 24 be
       0.06315165 -0.07705306 0.13817969 -0.16064055
000260 af 89 52 be cf 9e 46 3d 7b 12 70 3d fa a1 08 be
       -0.20560335 0.048491295 0.058611374 -0.13343039
000270 22 ae a2 3e 25 a1 fe bd 0e 46 ce be d0 ec 89 be
       0.31773478 -0.1243308 -0.40287822 -0.26938486
000280 a8 e8 8f 3d a5 10 4d 3c 8f f7 54 3e 18 11 d4 bc
       0.070267975 0.012516175 0.20797561 -0.025887057
000290 2f cf f4 3c 51 d2 48 3e 17 84 89 be 12 06 b8 bd
       0.02988395 0.1961148 -0.2685859 -0.08985533
0002a0 cd 2b 3e 3c 51 59 10 3e a7 16 0c 3e 17 ee da 3d
       0.011607123 0.14096572 0.13680516 0.10689943
0002b0 5b 4b d2 3d 34 c2 8b bd 0f 9a aa bd f6 3c ab be
       0.10268279 -0.06824151 -0.083301656 -0.33444947
0002c0 fb cb d5 be 8f b6 b7 3d 7f 60 11 3d 67 1d 9d 3e
       -0.41757187 0.08970367 0.035492416 0.30686495
0002d0 c0 2e 28 be 2e 39 12 3e c4 30 2c be 5e 90 ea bc
       -0.16424084 0.14279625 -0.16815478 -0.028633293
0002e0 21 87 d9 bd 3d b0 f0 3c 0d f3 27 3e fd be 3c be
       -0.10621477 0.029380912 0.1640131 -0.18432231
0002f0 0b 7a 7a be 29 54 25 3e 94 5f e4 3e d4 68 0a bd
       -0.24460618 0.16145386 0.4460417 -0.03379138
000300 1b 30 db be 13 0c 89 3d e6 b8 44 bd 44 de 04 be
       -0.4281014 0.06691756 -0.048027895 -0.12975413
000310 f3 00 97 be 19 eb c0 3c 5d 14 32 3e 33 22 1a 3e
       -0.29492912 0.023549603 0.1739058 0.15052108
000320 23 bb eb be 02 e1 9c be 81 b2 b2 3e b1 86 80 3e
       -0.4604121 -0.30640417 0.34901813 0.2510276
000330 d6 21 2c 3e 02 97 70 be 67 d7 a4 3e 3c 4a 9b 3d
       0.16809782 -0.23495105 0.3219559 0.075825185
000340 86 68 70 be f9 01 c3 3e e6 3d d0 bd be 1b e5 3d
       -0.23477373 0.38087443 -0.10168056 0.11186932
000350 ba c2 60 3e 67 9c 31 be a3 68 fd 3e 24 8b 6c 3d
       0.21949282 -0.17344819 0.49493894 0.057749882
000360 37 27 01 bf 47 13 89 3c 00 5c 97 3e 58 42 0f 3d
       -0.5045046 0.016732825 0.29562378 0.03497538
000370 37 ed 25 3d 42 7e 45 be 1d 93 c6 be 35 1e 6a be
       0.04050943 -0.19286445 -0.38784114 -0.22863086
000380 52 fe 39 3e 5a 27 88 3e 32 13 88 3e 46 ad cd bd
       0.18163422 0.26592523 0.26577145 -0.10042815
000390 a9 70 ec bd 26 11 eb 3d 5a e6 ff bd 02 8d e1 bd
       -0.11544926 0.1147788 -0.12495108 -0.11013223
0003a0 72 c7 ed 3d 22 dd 18 be 9a cd d5 3d 9d 20 24 3e
       0.11610307 -0.14928105 0.10439606 0.16028066
0003b0 c4 60 66 3e 2a c9 a7 bd 84 a5 b0 be c7 d9 ce be
       0.2249785 -0.08192666 -0.34501278 -0.40400526
0003c0 cd 31 50 be a2 6a c8 3c 16 8b 31 3d e7 a3 40 3e
       -0.20331497 0.024464909 0.043345533 0.18812524
0003d0 ad 76 2c bd f5 d5 b0 bd 64 af ff bd fe 08 3a 3e
       -0.042105366 -0.08634559 -0.12484625 0.18167493
0003e0 fe 7c fd be 36 db 3e be 04 c1 4c bd 8b d0 1f 3c
       -0.49509424 -0.1863831 -0.04998876 0.00975431
0003f0 0d 3e 1a be 3a 3e 1e 3e 30 b5 32 3e 48 bf a7 be
       -0.15062733 0.15453425 0.1745193 -0.32763124

lstm.bias_ih_l0 f4 [256]
000000 64 17 c2 bc 58 ca 60 bb 32 77 c0 bc dd ff 23 3e
       -0.023692794 -0.0034300294 -0.023494337 0.16015573
000010 12 ed e9 bd 7e 00 c5 bd 8e ca 11 be 9b 6a 6b bd
       -0.11422171 -0.096192345 -0.14237425 -0.057474714
000020 08 94 98 bb 97 7a da 3d 84 c3 a1 3e 54 a5 20 be
       -0.0046563186 0.106679134 0.3159448 -0.15688068
000030 2e 1f 35 bd c5 3a ef bd 0b 73 24 bd 10 be fc bd
       -0.04421919 -0.11681131 -0.040148776 -0.12340939
000040 92 c9 e2 3d 48 95 4f 3e 61 08 97 bc f7 4c 81 bb
       0.11073603 0.2027179 -0.018436613 -0.0039459425
000050 56 97 fb 3d 79 6b fc bc 1e a7 06 3e 7a 15 67 be
       0.122847244 -0.030812966 0.13149688 -0.22566786
000060 08 a1 c6 bc 09 f3 ba 3c 95 2e 50 3e d5 f1 43 bd
       -0.024246708 0.022820966 0.2033027 -0.04783805
000070 d2 fa f3 3d 9e 48 50 be 8e be 28 3e fe 2a 3d 3e
       0.119130746 -0.20340201 0.16478941 0.18473431
000080 ae eb c1 bc 37 14 31 3d 8c f1 dc 3c de a9 4d 3e
       -0.023671951 0.04323217 0.026970647 0.2008433
000090 5b 8d 48 bd 9f 28 44 bd fe f8 83 3b 98 df 1f be
       -0.048962932 -0.0478903 0.004027485 -0.15612638
0000a0 e9 aa bc 3d 9e 99 1e bd df 21 55 bd 80 69 70 3d
       0.09212286 -0.03872072 -0.052034255 0.058694363
0000b0 89 21 18 bd 28 71 1b be 93 c5 77 3d 11 8f 20 3e
       -0.037141357 -0.15179884 0.060491156 0.15679576
0000c0 06 0b b4 bd dc 8b 10 be 35 49 10 3e ce 8b 13 3d
       -0.08791165 -0.14115852 0.14090426 0.036022
0000d0 49 95 f1 3c 08 3a 96 bd b6 11 4f 3c 8e 1b bf bd
       0.02949013 -0.07335287 0.0126385 -0.093314275
0000e0 fd c3 aa 3d 5f 06 57 3e 54 87 10 bd 1f 7d 68 39
       0.08338163 0.20998524 -0.03528531 0.00022171855
0000f0 a3 8b 13 bd 1f 12 f8 bc 8c 14 1f 3e 34 e1 9e 3d
       -0.03602184 -0.030282078 0.15535182 0.07757798
000100 75 a3 d2 3d ba 57 51 3e c9 33 16 3e 7e c9 26 3e
       0.10285083 0.20443621 0.14668192 0.162878
000110 7d 38 54 be fa 4b f4 bd e2 21 67 be eb c8 31 3d
       -0.20724674 -0.11928554 -0.22571519 0.0434045
000120 12 6c 38 be 6f 49 a5 bd 15 44 35 be 8f 93 e8 bc
       -0.18009976 -0.08070647 -0.17701752 -0.028390674
000130 c0 a1 9f 3b 7a 78 47 3e ee a3 e6 bd 7e c3 2e be
       0.004871577 0.19479552 -0.11261736 -0.17066762
000140 da 67 be bd e1 bd 00 be 13 e8 55 be bc d4 f8 3d
       -0.09297152 -0.12572433 -0.2088931 0.12149951
000150 b5 be 4a 3d 31 98 96 3d bd dc 32 bd f6 20 04 be
       0.04949828 0.07353247 -0.043667544 -0.12903199
000160 90 06 6f 3e 0b 01 63 bd 83 e4 2c be 20 5e d1 bd
       0.23342347 -0.055420917 -0.16884045 -0.10223031
000170 d7 46 86 3c 42 c1 01 3d 7b d3 0d be a4 a5 95 3c
       0.016391201 0.031678446 -0.13850205 0.01826746
000180 52 5a aa bd b6 96 95 bb a8 fd 80 3c 58 d6 65 3e
       -0.083180085 -0.0045650853 0.015745953 0.22445047
000190 90 a6 29 3e 23 fb 73 3d 99 f3 05 bd d0 d0 f7 bc
       0.16567445 0.059565675 -0.032703016 -0.030250937
0001a0 f6 e9 70 3d a6 dc fb bd 1c 10 bc 3d 5d ae 5a 3d
       0.058816873 -0.12297945 0.0918276 0.053388942
0001b0 36 31 bf 3d bc 7f e1 bd e5 e9 d9 bb 83 75 78 be
       0.09335558 -0.110106915 -0.006650197 -0.24263577
0001c0 e9 ac d9 3d e8 4f b3 3d a6 5c bc 3d 36 54 86 bd
       0.10628683 0.08755475 0.09197359 -0.06559031
0001d0 3b 88 ad bd 39 00 3a bd 6c 66 8b bd c8 1f a6 bc
       -0.084732495 -0.04541037 -0.06806645 -0.020278826
0001e0 2e a2 b6 3b de 19 63 bd d8 f0 22 3e bb ed 34 bd
       0.0055735325 -0.05544459 0.15912187 -0.04417203
0001f0 7b 3e 4e be 7e e3 89 bd 3f 01 6c 3e c1 54 d5 3d
       -0.20141022 -0.06732844 0.2304735 0.10416556
000200 03 d6 c7 3c c3 c4 c0 3d 59 3e a6 3d 04 38 0c be
       0.02439404 0.09412529 0.081173606 -0.13693243
000210 93 bf c4 3c f8 a8 95 3d a6 34 c2 3d df 19 ec 3d
       0.024017131 0.07307619 0.09482698 0.11528372
000220 69 5b 82 bd 5f fb f7 bd 14 72 f7 3d 17 ba 0d 3c
       -0.06365091 -0.12108492 0.120823056 0.008650324
000230 e6 04 9e 3d 0b af b6 bd 22 26 54 3d 47 39 a2 bc
       0.07715778 -0.089201055 0.05179418 -0.019802703
000240 46 8c c4 3d 7c a3 74 bc 28 51 8e 3d 98 0d ee b9
       0.095970675 -0.014931556 0.06949073 -0.00045405026
000250 e2 2e 82 bd 12 6e 88 bd d3 ad a1 3d ba 42 7c 3d
       -0.063565984 -0.06661619 0.078944825 0.061587073
000260 6e 5a bf bd 89 b1 d8 3d d9 25 91 3c a8 35 8e 3d
       -0.0934342 0.10580737 0.017718242 0.06943828
000270 5e 38 dc bd 5b 73 b6 bc cb 9f 1c 3d c6 01 c7 3c
       -0.10752939 -0.022271803 0.038238328 0.024292838
000280 85 0f 94 3c 9c fd 8c 3d 18 1d db bd 2d 0a 12 be
       0.018073807 0.0688431 -0.106989086 -0.14261694
000290 0b 27 1a bb 4e 03 0c be fa d3 9e 3c 85 ee 3d bd
       -0.0023521807 -0.13673136 0.019388188 -0.046370048
0002a0 a4 73 16 be dd ff f3 3c 88 6a 33 3d 34 4a 3c 3b
       -0.14692551 0.029785091 0.043802768 0.0028730752
0002b0 d3 0f 8a bd 2a 85 3b be 8a 53 8c bd da 74 0a bd
       -0.067412995 -0.18312517 -0.06851871 -0.033802845
0002c0 cf 4c 00 3d 30 2d 8e bd 17 a4 0d be d4 ea fd 3c
       0.03132325 -0.069422126 -0.13832127 0.030995764
0002d0 49 17 de 3d 83 89 22 3c 3c ea a6 bd 4b 59 3b 3a
       0.10844285 0.009920481 -0.081501454 0.00071467896
0002e0 cd 9f e2 3b 14 06 0b 3d 05 cc 38 bd 84 a7 f9 bd
       0.0069160224 0.033941343 -0.045116443 -0.12190154
0002f0 bd e4 30 3d cd ab d5 3d 82 7f 36 3e e1 70 0e be
       0.04318689 0.10433159 0.17822078 -0.13910247
000300 a7 e3 86 bd 1c 9e fe 3d b2 f4 d7 3d d1 68 0d 3e
       -0.0658639 0.12432501 0.10544719 0.13809516
000310 6b a7 6b bd 48 53 71 3c 1e df 6c be 50 c4 df 3d
       -0.05753271 0.014729328 -0.23131987 0.109261155
000320 f2 9f 35 3e 67 a5 4b bc 6a 11 9f 3e 49 4c c1 3d
       0.17736796 -0.012429572 0.31067973 0.09438378
000330 6e 92 0d bd 97 6b fa bd 1f d6 86 bc cf ee 3f be
       -0.034563474 -0.122275524 -0.016459523 -0.18743442
000340 21 e8 c2 3c 6c bd 1e 3e 8f 01 bb 3d 77 ae bc 3d
       0.023792328 0.15501946 0.09131157 0.09212964
000350 32 10 56 bc 36 68 49 bc 37 02 9d 3d c3 e0 83 be
       -0.013065385 -0.012292912 0.07666438 -0.25757417
000360 2e 69 5f bd ed df 70 3d f1 78 7b 3e 65 cc c6 3c
       -0.054543667 0.058807302 0.24557854 0.024267385
000370 45 95 99 3d cf c8 6c be ff 96 06 3e 5d 8a be 3d
       0.07499174 -0.23123477 0.13143538 0.093037345
000380 70 15 00 bd 36 af f7 bd 3e 7c 0c 3b f2 f3 c8 3c
       -0.031270444 -0.12093966 0.0021436359 0.024530385
000390 3d 39 22 bd c5 38 4f bd 60 7d b9 bd 0f 16 18 be
       -0.039605368 -0.05059125 -0.090571165 -0.14852165
0003a0 84 89 aa 3d 60 84 75 be 9b 3f 57 bd 7f 27 2b be
       0.0832701 -0.23976278 -0.052550893 -0.16714285
0003b0 e9 61 fd 3d 55 85 14 bd 2a 95 d9 bd e1 52 26 3e
       0.123721905 -0.036259968 -0.10624154 0.16242553
0003c0 d5 60 8e 3c 87 d9 2f be 33 7e 1b 3e fd ef 84 3d
       0.017380157 -0.17172824 0.1518486 0.06491087
0003d0 e7 71 51 3d 1f 49 1b be b1 79 80 3d d5 9a 9d 3c
       0.051134016 -0.15164612 0.06273211 0.019238869
0003e0 b8 df a8 3d 09 b1 f9 3d c9 dc 15 be 6d 7e 23 3d
       0.08245796 0.1219197 -0.14635004 0.03991549
0003f0 29 ba de bd f4 c4 a0 3d 17 08 96 3d 91 14 8a 3d
       -0.10875351 0.07850066 0.07325762 0.06742204

lstm.bias_hh_l0 f4 [256]
000000 78 76 a8 bd a5 44 b5 3d 45 06 51 bd 4b 29 48 3e
       -0.08225721 0.088509835 -0.05103137 0.19547002
000010 6a e7 31 bd e9 2a 12 be 19 1a 00 be 90 58 aa 3c
       -0.043433584 -0.14274181 -0.12509955 0.020794183
000020 f5 60 65 3d 60 4e 43 3e 5b de 48 3e c8 3e d8 bd
       0.05600067 0.19072866 0.19616072 -0.105588496
000030 68 2c d3 bd 48 ca c7 bb 95 95 42 be f0 b6 28 be
       -0.10311204 -0.006097112 -0.19002374 -0.16476035
000040 9e 21 56 bd 1b 7f 59 3c b3 d1 89 bd 1f 83 38 bd
       -0.052278154 0.013274933 -0.0672945 -0.04504692
000050 f4 fa f0 3d de cf 5b bc 7c 8e 20 3e 18 48 39 be
       0.117666155 -0.013416259 0.15679353 -0.18093908
000060 fc d5 86 3c 9c 79 05 be c9 67 02 3d 31 6b 96 bd
       0.016459458 -0.13034672 0.03183726 -0.07344664
000070 8e 21 9e bd e0 31 be bd 69 74 8f 3e da 3d 79 3e
       -0.07721244 -0.09286857 0.280185 0.24340001
000080 cc 72 2d bc 71 72 81 ba 02 cb 4a 3e 45 92 cd 3d
       -0.010586452 -0.0009876025 0.19804004 0.10037664
000090 e6 0f c2 bd b5 33 c4 bd aa 80 f9 bd cb 37 43 be
       -0.09475689 -0.09580175 -0.12182744 -0.19064252
0000a0 49 b3 cf 3d 47 c8 8a be 61 fe 5b 3d c4 ff a2 bc
       0.10141618 -0.27105924 0.05370939 -0.01989735
0000b0 13 ab d6 bb da 72 8e bd 8f 7d e0 3d 93 67 7f 3e
       -0.0065511554 -0.069555 0.109614484 0.24941854
0000c0 ee 3b a6 bd 92 be 0b be 9f 30 f1 3d 92 3d 12 3d
       -0.081168994 -0.13646916 0.11776852 0.03570325
0000d0 01 a9 8e bd c7 56 64 be 88 d6 82 bd 00 cc 74 bc
       -0.06965829 -0.22298728 -0.06388575 -0.0149412155
0000e0 1d e6 88 3d 4d 6f 1b 3e 99 a2 a7 bd 1a 79 62 bd
       0.066845156 0.15179177 -0.0818531 -0.055291273
0000f0 46 ca b5 bd 28 8d bc bd 75 83 89 3c ed 6f 13 be
       -0.08876471 -0.09206611 0.016786316 -0.14398165
000100 1f 16 bf bd f2 2a 5f 3e 3f 99 d9 3d 1e 43 71 3e
       -0.09330391 0.21793726 0.106249325 0.2356076
000110 af 69 ff 3c 4e 9c 31 be 42 d2 63 be f4 c9 b8 3d
       0.031178324 -0.17344782 -0.22248176 0.090228945
000120 9f 82 08 be bf a8 1e be 3b 53 2a be ef bb 94 bb
       -0.13331078 -0.15494059 -0.16633312 -0.004539005
000130 6c 9d b8 bc c1 e8 00 3e 5b e5 71 3c da 86 90 3c
       -0.022536002 0.12588789 0.014764155 0.017642427
000140 0d 8c ef bd d6 d2 83 3c fb a4 22 be b9 ef c3 bd
       -0.116966344 0.016091745 -0.15883248 -0.09567208
000150 65 c8 b6 bd 1e 54 1c 3d 73 9a 2a 3d c1 cc 1e be
       -0.08924941 0.038166158 0.0416512 -0.15507795
000160 46 c7 16 3e 21 a6 7b 3c f9 1e dd 3c 35 c9 8c bd
       0.14724454 0.015359432 0.026992308 -0.06874315
000170 d3 56 00 be d4 c7 25 3d 66 16 e6 bd 32 1c e0 bd
       -0.12533121 0.040473774 -0.11234741 -0.10942878
000180 ac f5 41 bd c3 a9 df 3d 4b e2 80 bd 49 fc 32 3d
       -0.04735343 0.10921051 -0.06293162 0.04369763
000190 f5 b6 4c bc 40 9d 91 3d 8b 12 da bc ad 47 22 3c
       -0.012494792 0.07110071 -0.02662017 0.009904784
0001a0 98 f1 a5 bd 19 4f 00 bd e8 62 d4 3d de 2a 78 bc
       -0.08102721 -0.031325433 0.10370427 -0.015146939
0001b0 c0 79 01 3e 28 c0 5c 3b 08 e3 43 3d 66 37 cf bd
       0.126441 0.003368387 0.047823936 -0.10117988
0001c0 db 21 ed bd e7 63 f0 bd d0 bf f0 3d 0d 6d cf bd
       -0.11578723 -0.11737805 0.11755335 -0.10128222
0001d0 3a 5d 0e 3e f3 c2 8c 3d 50 54 a3 bd 00 be c4 3d
       0.1390275 0.06873121 -0.07975066 0.09606552
0001e0 fd 51 49 be e9 cc 06 be df 0b fb 3d 55 8c 06 3e
       -0.19660182 -0.13164105 0.122581236 0.1313947
0001f0 14 58 a9 bd 76 2e ba 3d 13 33 4a 3e 51 10 0e 3e
       -0.08268753 0.09090893 0.19746046 0.13873412
000200 18 ae 1f be 48 e3 41 3d 92 4b aa 3c 1a 23 75 bd
       -0.15593755 0.047335893 0.020787988 -0.05984793
000210 4e de 56 bd 7c 5e 32 3c ea fe a0 bc cb d2 a4 3d
       -0.0524581 0.010886785 -0.019652802 0.08048018
000220 11 8a fc bc 05 02 9e bc 31 b5 35 bd 3a cc 8d bd
       -0.030827554 -0.019288072 -0.04436225 -0.06923719
000230 b7 be 83 3d 5f 85 96 bd c6 37 68 3d a9 0b 8d 3c
       0.0643286 -0.07349657 0.056693815 0.017217474
000240 86 81 a0 bd 7a 8b 0f bb 58 4f ca bd f8 89 c7 bd
       -0.07837205 -0.0021903203 -0.09878415 -0.09743112
000250 9e af 39 3d 58 ac ad bd 43 16 da 3d d1 9e 5f 3d
       0.045333497 -0.084801376 0.10648777 0.05459482
000260 8c 03 66 bc ed d2 cf 3d 60 22 64 3d b2 8c c1 3d
       -0.014038932 0.10147653 0.055696845 0.094506636
000270 6e a5 e9 bd 11 75 61 bc e6 cc cf bc 31 1d 6d 3c
       -0.11408506 -0.013760821 -0.025366258 0.014472292
000280 62 ef dd bd 03 b5 da 3d f3 3d 72 3d f6 08 04 be
       -0.10836674 0.106790565 0.05914111 -0.12894043
000290 17 75 44 3c 23 30 bb 3d d0 de 11 3d 9d 68 1c bc
       0.011990807 0.09140041 0.03561288 -0.009546426
0002a0 99 ba 1a bd ce f7 b8 bc 1e 73 88 bd 8e d1 af 3d
       -0.03777561 -0.0225791 -0.06662582 0.08584891
0002b0 25 7a 6f bc fc e9 e9 3c 1f b5 1a 3c 26 76 10 bd
       -0.014616524 0.028553955 0.009442597 -0.035268925
0002c0 64 22 3c be 0a e9 b5 3d db 94 22 bd d6 a5 39 3b
       -0.18372494 0.08882339 -0.03969274 0.0028327606
0002d0 65 7b c1 3d 84 ab d2 bc 60 e3 e7 bd 81 91 10 3e
       0.09447364 -0.02571655 -0.11322665 0.14118005
0002e0 8f bc f4 bd 06 83 99 bd 0e a0 b9 3a d7 b3 04 3c
       -0.11950027 -0.07495694 0.001416208 0.008099518
0002f0 96 c8 bd 3c f0 37 67 3d a0 89 91 bc f1 a4 97 bc
       0.023166936 0.05644983 -0.01776582 -0.018511267
000300 fa 73 34 bd 30 3a 04 bd 04 54 95 bd 90 61 10 3e
       -0.044055916 -0.032282054 -0.07291415 0.14099717
000310 f7 10 07 be 7c 76 5b 3c 68 99 98 bd 97 aa 09 bd
       -0.13190065 0.013394948 -0.07451135 -0.033609953
000320 16 3c 35 3e 6e 65 1f 3e 74 1e 63 3e 2f ca d7 bd
       0.17698702 0.15566036 0.22179586 -0.1053661
000330 44 2b 12 be 50 c6 14 be 31 50 a1 bd 82 41 29 be
       -0.14274317 -0.14528775 -0.078766234 -0.16528895
000340 b2 20 cc 3c 7e 74 2b 3e 12 52 6c bc cb db 96 3d
       0.024917934 0.16743657 -0.014423864 0.07366141
000350 7e fa 53 3e b0 2a 57 3d ed e7 81 3e 98 30 45 be
       0.20701024 0.052530944 0.25372258 -0.19256818
000360 f0 e9 25 3c 99 db 36 bd 37 f5 3d 3e a0 31 79 3d
       0.010126576 -0.04464302 0.18550573 0.06083834
000370 69 f6 9a 3c b1 d0 1b be 46 8a 5a 3e ad 39 93 3d
       0.018916326 -0.15216328 0.2134181 0.07188735
000380 39 e7 0c bd 24 fd 83 bd db 98 a3 3d 5a 8a d2 3d
       -0.0344002 -0.06444767 0.07988139 0.10280295
000390 88 6c bb ba 8b b0 40 3d 2c a0 86 bd 71 a3 c7 bd
       -0.0014299313 0.047043364 -0.06573519 -0.09747971
0003a0 4f 72 8a 3d 52 cd d2 bd 35 b4 11 bd bd 13 09 be
       0.06760084 -0.10293068 -0.03557225 -0.13386436
0003b0 40 90 52 3d 49 69 1b 3d 40 7f b2 3b b8 fa a5 3e
       0.0514071 0.037942205 0.0054472983 0.32417846
0003c0 08 04 f5 3d 25 e8 5a be 52 eb e0 bb fe 03 99 3c
       0.119636595 -0.21377619 -0.00686399 0.018678661
0003d0 3a 57 77 3c 82 92 b4 bd 93 fb a0 bd 1c 6b 5a 3d
       0.01509648 -0.08817007 -0.07860484 0.053324804
0003e0 d8 f9 e5 b8 f0 a8 eb 3d e5 9d 0c be 0e e6 00 bd
       -0.00010966108 0.11506832 -0.13732107 -0.031469397
0003f0 4f bb 98 bd 96 2f 87 3d bd 0c 9c bd 83 ac 05 3d
       -0.07457601 0.06600873 -0.07619617 0.032635223

lstm.weight_ih_l1 f4 [256, 64]
000000 26 15 80 be 26 c6 52 bd 02 dc b5 bd 2d 47 1a be
       -0.25016135 -0.0514585 -0.08879854 -0.15066214
000010 fd ed 1e be d3 ec 5d 3d 7e 98 ef 3d 2f d6 ef 3d
       -0.15520473 0.05418093 0.116990075 0.11710774
000020 4e 9c 8c be af e7 e0 bd b5 c4 50 3e 78 f2 3f 3e
       -0.27463 -0.1098169 0.20387538 0.18744838
000030 a1 1d a3 3d c9 c5 46 be 13 bf 25 3e 74 75 c7 3d
       0.07964636 -0.19411387 0.1618617 0.09739199
000040 e4 0a 08 3e fa 05 5a 3e b0 38 36 be 1c 09 30 be
       0.13285404 0.21291342 -0.17795062 -0.17190975
000050 93 e7 28 3e 6b 12 86 be 36 01 98 3e 4d 10 62 be
       0.16494589 -0.26185927 0.29688424 -0.22076531
000060 3a a1 c7 bd 6b 4d 04 bd 72 4d 3c 3e ce bb a7 bd
       -0.097475484 -0.032300394 0.18388918 -0.08190118
000070 47 85 00 3e cd 54 33 be a7 c7 b2 be 17 bb ce be
       0.12550841 -0.17512818 -0.34917948 -0.40377113
000080 9b a2 c8 bc bd 4d a2 3d cf a2 19 be d2 68 69 be
       -0.024491599 0.07924984 -0.15003513 -0.22793892
000090 bf f7 3c 3d f9 01 ae 3c cb 45 32 be 14 d0 0f 3c
       0.046134707 0.021241175 -0.17409436 0.008777637
0000a0 9b 40 75 be 84 c1 ab bd 0f 26 db 3d a9 a7 6a 3e
       -0.23950426 -0.083865196 0.107006185 0.2291552
0000b0 9a b6 1a 3e 09 80 47 3e 32 8e 22 3d ee 4a 64 be
       0.1510872 0.19482435 0.03968639 -0.22294208
0000c0 b9 5f 8a bd c9 f0 0f 3e 28 14 36 bd 22 f7 8e 3e
       -0.06756539 0.14056696 -0.044452816 0.27922922
0000d0 37 0e b1 3d 10 21 4f 3d e6 c0 55 be 3e 11 b6 bd
       0.086452894 0.05056864 -0.20874366 -0.088900074
0000e0 e3 14 c3 be c7 1b d3 bd 2a 14 bb 3c 0b d9 be bd
       -0.38101873 -0.103080325 0.022836763 -0.093187414
0000f0 a6 b4 aa bc 0f 82 99 3e 03 35 a9 3e ab fd a0 bc
       -0.020838093 0.2998204 0.33048257 -0.019652208
000100 d3 1d ed bd 6e 80 d3 bd 13 4c c0 3d 7b 53 0a be
       -0.11577954 -0.103272304 0.0938951 -0.13508408
000110 ea 3b 6d be a9 99 43 bd 61 57 4a 3e 06 be 2e 3e
       -0.23167387 -0.047753964 0.19759895 0.17064676
000120 43 b4 52 be 01 21 2d be b5 59 54 3d e3 94 83 bd
       -0.20576577 -0.16907121 0.051843364 -0.06424882
000130 4c 1f 57 3e e7 d6 ee bd b4 b1 71 3d 0c 1d 57 3d
       0.21008033 -0.11662083 0.05900736 0.052517936
000140 65 01 55 3e e9 5f a9 bd eb d7 14 be bd de 2c 3c
       0.20801313 -0.082702465 -0.14535491 0.010551152
000150 70 17 1e bd b3 ed 34 be 5e 64 9b 3e d1 6d c2 bc
       -0.03859657 -0.176688 0.30350012 -0.023734005
000160 3c 4d 03 be df 1b 8c bc c6 a3 ac bc ee e1 36 bd
       -0.12822431 -0.017103134 -0.021074187 -0.044649057
000170 de 1e 0a 39 a0 4d 02 bd ea c6 ae 3d 50 07 0e be
       0.00013172204 -0.03181231 0.085340336 -0.13869977
000180 6b c2 c1 bb 25 18 5e 3e 47 ee d6 bd ee 82 8e be
       -0.005913069 0.21688898 -0.104946665 -0.27834266
000190 08 53 ed 3c 91 64 65 be f0 6e 4d 3d cb 23 d8 3d
       0.028970256 -0.22401644 0.050154626 0.10553702
0001a0 75 66 39 be 6a f2 22 be 83 57 d9 bc 8a 44 3b 3e
       -0.1810549 -0.15912786 -0.026530987 0.18287864
0001b0 4d be 77 3d f8 a7 c8 3b 4f e9 b1 3d 98 59 bc 3b
       0.06048422 0.006123539 0.08687078 0.005747985
0001c0 b3 1d a7 bd 6d b7 ae bc e4 06 1a be 50 55 06 3c
       -0.081599616 -0.021327699 -0.15041691 0.008199051
0001d0 ec 20 10 3e 52 5c e1 bd e0 93 25 bd fd b6 71 3e
       0.14075059 -0.11003937 -0.040424228 0.2360496
0001e0 99 8c 8e be ea c2 4a bd e5 a6 1d 3c f4 ba 69 be
       -0.27841642 -0.04950229 0.00962231 -0.22825223
0001f0 4a 0b ad 3c 2d dd 07 3e f5 f3 11 3e 91 ad 4e bd
       0.021123547 0.13267966 0.14253218 -0.050458495
000200 b3 31 0e be c3 9e 22 be 47 32 29 be ff 2e e2 bd
       -0.13886146 -0.15880875 -0.16523086 -0.1104412
000210 6b 36 4f be ca 38 19 bd b2 c4 c4 3c 9b 9d 34 bd
       -0.20235603 -0.037407674 0.024019573 -0.044095617
000220 55 50 7b be d7 37 29 be bd 2d 81 3e 53 f8 29 3e
       -0.24542363 -0.16525207 0.25230208 0.16598634
000230 07 12 fd 3d a0 ba ac bd 84 7a 6e 3d bd cf 1c bd
       0.12356954 -0.084340334 0.05822231 -0.038284052
000240 e9 03 96 bd 12 3d fa 3d ab f6 13 be 0d f0 68 bd
       -0.073249646 0.122186795 -0.14449565 -0.056869555
000250 bc 7b 1e 3d 3a f3 92 3d 6c c9 96 3e 83 58 b9 bd
       0.03869222 0.07175298 0.29450548 -0.090500854
000260 c7 98 83 bd 8f d6 14 3d 10 1b 54 3e 45 36 f9 bd
       -0.06425624 0.03633743 0.20713449 -0.12168554
000270 91 c1 dc 3d a8 a8 2d be 0f fd 2c be 9f 51 ce be
       0.10779107 -0.16958869 -0.16893409 -0.40296647
000280 44 06 6c 3d 76 79 b0 3c 04 5e 7a bd ea 02 63 3d
       0.057623163 0.021542292 -0.061124817 0.0554227
000290 54 b1 81 bd e7 ed 9d bd 43 18 9d bd d7 13 35 3e
       -0.06332651 -0.07711392 -0.07670643 0.1768335
0002a0 af 31 94 3c b5 56 85 bd 5d 66 09 3c 58 74 bc 3d
       0.018090097 -0.06510679 0.008386222 0.09201878
0002b0 97 63 4f 3e 4b 2f 27 bb 4a 48 35 be 92 3e b8 be
       0.20252834 -0.0025510367 -0.17703357 -0.35985237
0002c0 2e 12 2c 3d 0c 94 9d 3d 1e 88 70 3d 18 f2 66 3e
       0.042009525 0.07694253 0.05872356 0.22553289
0002d0 49 62 59 bc fc f6 0c be 07 66 dc 3d 0d c1 3b 3d
       -0.013268062 -0.13766092 0.10761648 0.045838404
0002e0 66 a0 85 be 19 a2 8b bd c0 5c 31 bd 21 2f 68 bd
       -0.26098937 -0.06818027 -0.043301344 -0.05668557
0002f0 10 bf ff 3d 45 7a 14 3e 34 d8 78 bc a3 55 41 3d
       0.12487614 0.14499767 -0.015188266 0.04720081
000300 db 85 a4 3c bf ad 5d be d6 32 3e 3e a1 99 4e 3e
       0.020083359 -0.2164831 0.1857408 0.20175792
000310 11 16 b3 3e 6b 40 9c 3e e1 c6 3f be 8f c2 9f bd
       0.34977773 0.30517897 -0.1872821 -0.07800781
000320 59 7b af 3e 55 29 3e 3e f4 4c 1a be a2 77 a6 3d
       0.34273794 0.18570454 -0.15068418 0.08128287
000330 22 85 bc be 24 d0 0e 3d ec b7 d2 ba 2a 67 38 be
       -0.36820322 0.034866467 -0.0016076542 -0.18008104
000340 f7 9f 6d 3c 96 e8 af be 87 d1 60 3e 1a 59 ee 3b
       0.014503471 -0.34357136 0.21954928 0.0072738053
000350 9e 06 05 be ae 0a f6 3d 63 71 4e be bc ea 0b 3c
       -0.12990806 0.12013756 -0.20160441 0.008539852
000360 d2 4b b8 bd 64 1d d4 bd 69 cf f1 bd fb 50 f1 3d
       -0.089988366 -0.10357168 -0.118071385 0.11783024
000370 b9 13 8b be 70 6c fe 3c 17 12 c0 3e 46 5f 8d 3e
       -0.27163485 0.031057566 0.375138 0.2761175
000380 9a ac 7f bc 6b 30 1f be 7b e0 4c be 1a 79 40 bd
       -0.015605116 -0.15545814 -0.20007508 -0.04699049
000390 8a 4b 81 bd 66 ec 88 be e5 da f6 3d 60 20 b3 3d
       -0.06313236 -0.26742858 0.120534696 0.087464094
0003a0 67 81 b5 bc 69 c8 36 3d 21 fc 70 3e a2 2c c8 bd
       -0.02215643 0.04462472 0.2353368 -0.09774138
0003b0 8d e4 54 bd f5 bc 0e be b5 3e 5c 3e fe ee ad 3e
       -0.051975776 -0.13939269 0.21508296 0.339714
0003c0 ce 38 db 3d 1d 6f a2 bd a7 99 2e 3e b5 73 42 be
       0.10704194 -0.079313494 0.17050801 -0.18989451
0003d0 8e e9 10 3e 32 fc 3e be 78 1c 5c 3d c1 b3 a2 bc
       0.14151594 -0.18650892 0.053738087 -0.019861104
0003e0 c0 67 c8 3d b4 12 e9 3d 11 33 81 3d 59 de 96 3d
       0.09785414 0.113805205 0.06308568 0.07366628
0003f0 ee 11 83 3e 9a d9 3f be 1e 91 24 3c b9 17 15 3e
       0.25599617 -0.18735352 0.010044364 0.1455983

lstm.weight_hh_l1 f4 [256, 64]
000000 7d e4 e7 3b aa 44 4f 3e f7 93 13 3e fc b0 7f bd
       0.0070767985 0.20241037 0.14411913 -0.062424645
000010 e5 49 35 3d 41 a6 e8 3d 63 cb a3 3d d7 85 2d be
       0.044259924 0.113598354 0.07997777 -0.16945587
000020 1d 24 d5 b9 44 0c ae 3d 56 9c 85 be 93 ba 0b bd
       -0.00040653432 0.08498433 -0.26095837 -0.034113478
000030 81 2a 9f be b4 d9 0a bc 4a 42 ed 3e cd cc 17 be
       -0.31087115 -0.008474756 0.46339637 -0.14824219
000040 70 03 e3 bd f2 1f 5e be e5 d0 04 be b7 b4 f0 3d
       -0.1108464 -0.21691874 -0.12970312 0.117532186
000050 24 1c 81 3d 6b a3 47 be 49 a8 68 bd ef b5 56 bc
       0.063041955 -0.19495933 -0.056801114 -0.0131049
000060 5a 88 81 3e 97 c1 de 3d 7a 8e ab bb 90 c7 2c 3d
       0.2529934 0.10876768 -0.0052354904 0.042182505
000070 13 59 39 bd b0 a4 85 bc 91 e9 b6 3d fa fe 3a bd
       -0.045250963 -0.01631388 0.08931268 -0.04565332
000080 cd 9d 0c 3e 96 aa e9 3d 9c 6d 4c 3b 8d cf fa bd
       0.13732071 0.1140949 0.0031193262 -0.122466184
000090 e0 6f 76 bd 13 1b d1 bd f6 07 8a 3e 18 40 1c 3c
       -0.060165286 -0.10210242 0.269592 0.0095367655
0000a0 c0 fb 70 3e 76 e1 64 be b4 de dd bc 04 59 3a be
       0.23533535 -0.22351632 -0.027083732 -0.1819802
0000b0 c2 d7 97 bd 47 c7 d3 be 4a e8 92 3c d6 c8 83 be
       -0.074141994 -0.41362974 0.01793303 -0.25739163
0000c0 92 2d 82 bd c2 8e 56 3e 0b 12 08 3e 28 a4 5b 3d
       -0.06356348 0.20952895 0.13288133 0.05362335
0000d0 c9 88 c4 bd 7b 78 e5 bd 85 f5 08 be ce 59 71 be
       -0.09596402 -0.112046205 -0.13374908 -0.23569414
0000e0 d4 dc ab 3d 46 08 84 3e 27 16 ac 3d 3c 60 b0 3e
       0.08391729 0.25787562 0.08402663 0.3444842
0000f0 f4 b3 26 3e 5f 42 83 bd 9e 1b 1c be 1b 1a 89 be
       0.16279584 -0.06409144 -0.1524491 -0.2677773
000100 ec bf e5 3c 18 09 2a 3b 82 49 ca 3d dc 30 85 3e
       0.028045617 0.0025945362 0.09877302 0.2601384
000110 f0 55 27 3e bc 7b 5f 3e 51 eb 19 be 67 7c 15 be
       0.16341376 0.21824545 -0.15031172 -0.14598237
000120 af b6 0f be 96 cc 2e be ed 57 aa be c3 a2 4a bd
       -0.14034532 -0.17070231 -0.33270207 -0.049471628
000130 90 9c f2 be 9d 73 c5 be 1d c8 8f 3e d5 42 af bc
       -0.47385073 -0.38564768 0.28082362 -0.021394173
000140 26 be 22 3d 64 97 cf 3d 47 50 33 be c8 0d a4 bd
       0.03973212 0.10136297 -0.17511092 -0.08010441
000150 70 b1 51 3d e1 5f 0a be 25 2c 48 3d a0 70 ec bd
       0.05119461 -0.13513137 0.048870225 -0.11544919
000160 96 be 9a 3e a6 3c e0 3d 51 f2 40 be 31 55 84 be
       0.3022353 0.10949068 -0.18842436 -0.25846246
000170 9a f8 e8 bb 92 4d 2a be 8b 37 b0 3e d3 f4 86 be
       -0.0071097137 -0.16631153 0.34417376 -0.2635866
000180 b4 c3 5a 3d 19 c6 d8 3c fb 15 0b 3e 43 c2 ae be
       0.053409293 0.026461648 0.13582604 -0.34132585
000190 2d 32 e7 3d 8c 87 b2 be e5 4e 46 3d e3 d8 d2 bd
       0.11288867 -0.3486904 0.048415083 -0.10295274
0001a0 38 69 77 3e ef 90 04 be d2 bc 26 bc ea 7b 34 be
       0.24161232 -0.12945913 -0.010176854 -0.17625394
0001b0 d8 48 24 3e 07 3f 8f be 72 3b 55 3a 56 e3 d5 3d
       0.16043413 -0.27977774 0.0008134163 0.104437515
0001c0 d8 5a f3 bd 84 4b b3 3e ce cc 85 3d 3b 12 9b 3e
       -0.118825614 0.3501855 0.06533204 0.30287346
0001d0 52 df 62 bd 73 87 86 3e 05 c2 00 3c 1e 4f e1 bd
       -0.055388756 0.26275215 0.007858758 -0.110014185
0001e0 44 cd ba 3d bd 04 99 bd 79 64 bf 3d cf d1 05 3f
       0.091211826 -0.07471607 0.093453355 0.5227327
0001f0 d7 ec 59 b9 54 4d cb 3d 2d 80 5e 3d 7e 00 71 3c
       -0.00020782962 0.099268585 0.054321457 0.01470959
000200 f2 ba 29 3e e3 e5 a5 3d c0 a3 4e 3e ed 59 6c bc
       0.1657522 0.08100488 0.20179653 -0.014425737
000210 18 3f 04 3e 6a 2e 37 3e 2b 02 df 3d 5e b4 68 bd
       0.12914693 0.178888 0.108890854 -0.056812637
000220 4b cc 87 3c 4e 0d a5 bc de af b5 bb 4c 97 5e be
       0.016576907 -0.020147946 -0.0055446466 -0.21737403
000230 d5 42 25 be 21 9e 22 be bc eb bc 3d 15 9a 28 be
       -0.16138776 -0.15880634 0.0922465 -0.16465028
000240 c1 e2 4f be 9b 20 8a be 82 d7 e4 bd 45 b1 9b 3d
       -0.20301344 -0.26978 -0.11173917 0.07602171
000250 15 53 4b 3d e4 1a c0 bd f8 d0 12 be 4a db ac bc
       0.04963978 -0.09380129 -0.14337528 -0.021100659
000260 13 21 39 3e 6e 19 e8 3d 6d 76 88 3c 9a 44 25 be
       0.18079023 0.11332975 0.016658032 -0.1613945
000270 af 5c 0e 3e f9 94 62 bd 63 fc bd bc e4 40 98 3d
       0.13902543 -0.055317853 -0.023191636 0.07434252
000280 7a ce 0e 3e ea c6 18 3e 77 5f ae bd 27 68 9a 3b
       0.13945952 0.1491963 -0.08514302 0.004712123
000290 ef ea 37 3e fb 31 fc 3c 9a 74 e5 3d 0e 1f 99 bc
       0.17960714 0.030785551 0.112038806 -0.018691566
0002a0 d2 49 de 3c 6c 6a 53 be f8 cf 41 be 6a 24 4a be
       0.02713481 -0.20646065 -0.1892699 -0.19740453
0002b0 1b 89 0d 3e 59 e6 65 be 07 5d 02 3e 6b ec f1 bd
       0.13821833 -0.22451152 0.127308 -0.11812671
0002c0 ef 6f 2a be 49 84 f9 3c f6 d9 55 3e 23 ab a2 bd
       -0.16644262 0.030458586 0.20883927 -0.07942798
0002d0 51 30 bc bd f7 8c 15 3c 48 dd 00 3d ba 7b 2a be
       -0.09188903 0.009127847 0.03146103 -0.1664876
0002e0 82 d3 c2 3d 70 48 45 3d fd c8 0c be b5 ea fe 3d
       0.09512998 0.048164785 -0.13748546 0.124471106
0002f0 ec 56 90 3d e9 53 4d bd a1 d0 d8 bd ae 2f 80 bd
       0.07047829 -0.05012885 -0.10586668 -0.06259094
000300 9b fc ca 3d 56 58 59 bd 36 bc 08 be 5c 0b c9 bd
       0.09911462 -0.05306276 -0.13353047 -0.0981662
000310 20 e3 1f bd 6d 3b bb bd 80 61 32 3d 3b 72 df 3e
       -0.039034963 -0.09142194 0.043550014 0.43641838
000320 49 bd c9 bd d0 bf 45 bd 70 ee 57 bd 72 0c 19 bd
       -0.098505564 -0.04827863 -0.052717626 -0.037365384
000330 aa e2 1e be 2b f9 93 be 17 22 04 be 8d 6b e1 bc
       -0.15516153 -0.28901038 -0.12903629 -0.027517105
000340 51 d6 35 3e f6 92 49 be 12 fb 9f 3d 4c 07 5f be
       0.17757536 -0.19684967 0.0781156 -0.21780127
000350 48 2c 79 be 53 c3 3c 3e 51 fb 01 3e 94 2f 78 3d
       -0.24333298 0.18433885 0.12693526 0.06059225
000360 4b d4 27 3e cf 06 3c 3e e5 c6 1d be 05 84 90 be
       0.16389577 0.18361972 -0.15407903 -0.28225723
000370 d2 41 47 bd 0a ac b7 bd 0f d0 36 3e c3 87 00 be
       -0.048646756 -0.08968361 0.17852806 -0.12551789
000380 02 a1 37 bd 22 f6 a1 bd 44 55 13 3d 25 cb 8d be
       -0.044831283 -0.07908274 0.035969988 -0.2769405
000390 4e 02 42 be ff e0 a0 bd 7a 75 7a bc 80 ac 47 bb
       -0.18946192 -0.078554146 -0.015286798 -0.0030467808
0003a0 86 8e 44 be a0 e2 09 be db c5 75 bd 0d 67 93 3d
       -0.19194993 -0.13465357 -0.060003143 0.0719739
0003b0 f0 7c 96 bc 1e ad 79 3c 55 bb eb 3d 21 a5 2d 3e
       -0.018370122 0.015239028 0.1151034 0.16957523
0003c0 1e cb 01 bd ed 72 3d 3d 3b 66 89 bd a9 d3 25 3d
       -0.03168785 0.04625218 -0.06708952 0.040485058
0003d0 bd 6b 95 bc cd 99 b6 3d 4f d4 86 3e 29 55 72 3d
       -0.01823985 0.08916054 0.26333854 0.059163246
0003e0 e0 ba ae be 0e a9 90 bd 84 6e d8 3d c3 cc 67 3e
       -0.3412695 -0.070634946 0.10567954 0.22636704
0003f0 eb fa fe bd 40 7e e0 3d 31 22 3e 3d bf 70 2b 3e
       -0.124502026 0.1096158 0.046419326 0.16742228

lstm.bias_ih_l1 f4 [256]
000000 b1 0d 45 3d b6 24 5a be e6 4e 2c bd 83 bf 86 bc
       0.04810876 -0.21303067 -0.04206743 -0.016448742
000010 1d 5b f7 bd 4c b9 2a 3e 2a e7 13 be 9c b6 ed bd
       -0.12077925 0.16672248 -0.14443651 -0.116070956
000020 c3 7a 9a be 75 e5 88 bc 45 28 3c 3c 0b 6e 55 bd
       -0.30171785 -0.016710976 0.01148421 -0.0521069
000030 39 9b 72 3e 7e 55 4e 3e 90 06 22 3e 7b cb 64 3d
       0.23692025 0.201498 0.15822816 0.055858117
000040 44 7a 1e be 86 aa d2 bd b4 15 87 3b ca 69 cf bc
       -0.15476328 -0.10286431 0.0041224603 -0.025318999
000050 cd 64 71 be 30 f9 cc bd c8 ca fa bd 2d c8 c7 3d
       -0.23573609 -0.10008466 -0.12245709 0.097549774
000060 93 56 46 3e ee db f1 bd e8 0d 9d bd 51 9d cc 3d
       0.19368963 -0.118095264 -0.07668668 0.09990943
000070 28 30 f7 bd 44 b9 07 3e f7 e0 3a 3e a2 20 8e 3d
       -0.12069732 0.13254267 0.1824988 0.06939818
000080 99 b4 a5 bd f4 d0 dd bd fd 31 85 bd 6a b1 eb 3d
       -0.08091087 -0.1083087 -0.06503675 0.115084484
000090 53 44 d1 bd 83 b8 1f 3e a2 15 b9 bd 9d 73 31 be
       -0.1021811 0.1559773 -0.09037329 -0.17329259
0000a0 d9 3c 0f be e8 7a 8b 3c cf b3 c0 3c e3 e5 ae bd
       -0.13988055 0.01702638 0.02352324 -0.08539941
0000b0 57 e7 5a 3d d6 e9 c8 3d d2 7c 2d 3d ae c4 8c bd
       0.05344328 0.09810226 0.042355366 -0.06873451
0000c0 4c 9e a9 3d a1 06 d2 3d ac 15 04 3d 04 ef 9d bd
       0.08282146 0.102551706 0.03224723 -0.07711604
0000d0 75 73 40 be 55 22 54 be d3 cb 1b be 5e 6d 16 be
       -0.18794043 -0.20716222 -0.15214472 -0.14690158
0000e0 c9 17 13 bd 8d 97 13 3c 04 39 9b be ca 60 b1 3d
       -0.035911355 0.0090083005 -0.30316937 0.08661039
0000f0 83 bf d6 bd 77 b6 02 be 6d c5 7e bd e9 c2 65 be
       -0.10485747 -0.12764917 -0.0622 -0.22437634
000100 9e 09 3f be 92 d2 13 be 67 5a f7 bd 33 8a 94 bd
       -0.18656012 -0.14435795 -0.1207779 -0.07252922
000110 93 a8 43 be 5b a2 49 be ae 0d 69 bd db ed 77 3d
       -0.19107275 -0.1969084 -0.05689781 0.06052957
000120 66 d5 a1 3b 8a 10 82 bd 13 57 53 be 97 b1 03 bd
       0.004938769 -0.06350811 -0.20638685 -0.032151785
000130 27 7d 63 be 66 89 1f be ad ba 9e bd 1a ac a7 bc
       -0.2221571 -0.15579757 -0.07750449 -0.020467807
000140 6e fd f0 bd b4 a8 a5 bd 40 a6 bc bd 05 7e 48 bd
       -0.11767088 -0.08088818 -0.09211397 -0.048948307
000150 4f 87 f3 bd c0 f2 e7 3c d8 5b 00 be a6 bd d8 bd
       -0.118910424 0.028313994 -0.12535036 -0.105830476
000160 ae 48 59 be eb 38 1a be b5 89 3d be b7 d8 e3 bd
       -0.21219131 -0.15060775 -0.18509562 -0.111253195
000170 7f b9 ef bd cc 55 13 bd 4c 56 13 bd f6 2e b3 bd
       -0.117053024 -0.035970494 -0.03597097 -0.087491915
000180 f3 f8 78 3d 2d 04 d8 bc af 6b e8 bd 6d d8 c1 bc
       0.06078429 -0.026369179 -0.11348664 -0.02366277
000190 b1 d7 ec bd d1 eb 19 bd 43 a2 30 bc da 22 73 3c
       -0.11564577 -0.037578408 -0.010780874 0.014839852
0001a0 66 cb e6 bd 89 81 3d be d5 85 85 bd a3 54 be 3c
       -0.11269264 -0.18506445 -0.06519667 0.023233717
0001b0 08 49 40 bd 13 78 7b be 89 85 78 3d f4 95 02 be
       -0.046944648 -0.24557523 0.060674224 -0.12752515
0001c0 62 81 12 be 49 59 25 be 3f 4e ed 3d 1a db 70 bd
       -0.14307168 -0.16147341 0.1158719 -0.0588027
0001d0 c6 ff 47 bc 52 6e 63 bd e5 0d 53 3c 7f 0f 1e be
       -0.012206977 -0.05552513 0.012881731 -0.15435599
0001e0 a4 e6 19 be 7c 40 f7 bd 6a e7 86 bd 57 b0 01 be
       -0.15029389 -0.12072846 -0.065871075 -0.12664925
0001f0 2e 28 af bb 05 37 c4 bd c1 05 b3 bd 18 5d 4e bd
       -0.005345366 -0.09580807 -0.08741332 -0.05038175
000200 2e 58 d4 bc ee 36 1a 3d c2 3d 96 bd 16 e6 13 bc
       -0.025920954 0.03765004 -0.07335998 -0.009027025
000210 0f 59 7d bc c6 34 df 3b 29 6c d0 3d 09 4d b4 3d
       -0.015463128 0.006811711 0.1017688 0.08803756
000220 fb 1e 1d 3d 80 d2 3b bd 83 06 f5 bc 6c d4 63 3d
       0.038359623 -0.045855045 -0.029910332 0.055622503
000230 10 fb e7 bc cd b0 ba 3d e1 80 89 3c a2 3f 5c 3d
       -0.028317958 0.09115753 0.016785087 0.053771622
000240 7b d7 42 3d 7b 3a d7 bc 50 b7 2c 3d 6c e6 78 3c
       0.04756878 -0.026273003 0.042167008 0.015191656
000250 99 0e 8d 3d c5 96 1c bd 0b 79 e8 bb 39 e8 36 3d
       0.0688755 -0.038229723 -0.0070945076 0.04465506
000260 5a 1f 85 bd d2 9c 35 3d 14 a0 fd bc 50 49 14 3e
       -0.065001205 0.04433901 -0.03096012 0.14481091
000270 35 35 aa 3d 83 42 0a bd d7 6d 1d 3d 94 ef 4f 3d
       0.0831093 -0.033754837 0.03843483 0.05076559
000280 df 36 bc bd ba b2 79 bc bf 28 a1 bc b2 1d 23 bc
       -0.09190153 -0.015240366 -0.01967275 -0.00995581
000290 65 65 1d 3d 52 d5 dd 3d 87 43 b2 bd a7 3b 78 3d
       0.038426775 0.10831703 -0.08704286 0.060603764
0002a0 33 6b 38 3d fa 2c d1 3d 8c 38 c9 3d 11 38 c8 3b
       0.04502411 0.10213657 0.098252386 0.0061101993
0002b0 ff 35 e0 bd 4f 91 2f be 2a db 7b bd b5 2b 97 3c
       -0.10947799 -0.17145275 -0.061488308 0.018453458
0002c0 17 3a 35 3d f7 e5 25 3d 89 d0 33 3d fc 46 f8 bc
       0.044244852 0.040502515 0.043900046 -0.030307285
0002d0 a0 25 f0 3c 10 42 ba bc 61 7e 58 3d da 09 c3 3d
       0.029314816 -0.02273658 0.0528549 0.095233634
0002e0 8b 3d 69 bd a1 f0 5f bd a3 5f 77 bc e4 43 1d bd
       -0.056943458 -0.05467284 -0.015098485 -0.038394824
0002f0 06 96 c2 bd dc 66 7e 3d 2e 69 d1 3d c6 a9 d7 3d
       -0.09501271 0.062109813 0.102251396 0.105304286
000300 38 de 2d 3d 33 1a d7 3a c7 ec 48 bd 4a 3c 9d bd
       0.042448252 0.0016411006 -0.049053933 -0.07677515
000310 d1 1b 94 bd fc cc 2e 3e 67 c4 b9 bd d6 6c 82 bc
       -0.07231868 0.17070383 -0.09070664 -0.015921038
000320 cc d2 4d be e2 4b e0 bd 54 ad da 3d 5e af b0 bd
       -0.20099944 -0.109519735 0.10677591 -0.08627199
000330 2d af 21 3e 72 fa 6f bd 60 79 15 3e 50 40 8c bd
       0.1578948 -0.058588453 0.14597082 -0.06848204
000340 5c e0 12 3d 75 9e aa bd 02 17 00 be 37 d4 91 bc
       0.035858497 -0.083310045 -0.12508777 -0.017801387
000350 de e7 17 be 8f ed fa bd 6d a4 11 be 7c 78 c3 3b
       -0.14834544 -0.12252342 -0.1422288 0.0059652906
000360 a4 d6 51 3e 8a fa f7 bd f0 da b0 bc ae ff e2 3d
       0.20492035 -0.121083334 -0.021588773 0.11083923
000370 bd b1 8a be 96 97 1a bd a5 7e f5 3d bb d8 cf 3c
       -0.2708873 -0.03774222 0.11987046 0.0253719
000380 18 d1 98 bc af 49 24 be ad 65 47 be 5d a5 72 3d
       -0.018654391 -0.16043733 -0.1947238 0.059239734
000390 06 db 8a bd 70 d7 6b bc 55 53 c8 3d 8e b9 e1 bc
       -0.06780057 -0.014394626 0.09781519 -0.0275543
0003a0 b8 fa 88 be 87 3c 82 bd 2d 37 8b bd ed 7d 0d bd
       -0.26753783 -0.06359201 -0.06797633 -0.03454392
0003b0 1c 13 92 bd 2b 51 08 3e 20 18 e9 bd e2 fa 63 3d
       -0.07132551 0.13312213 -0.113815546 0.055659182
0003c0 1b b3 e9 3c 83 fb 34 bd 3a 33 33 bd 7f b1 26 bd
       0.028527787 -0.044185173 -0.043750025 -0.040696617
0003d0 c7 4c a9 bd 83 84 bd bd 03 9e 95 bd 74 05 ed bd
       -0.08266597 -0.0925379 -0.07305529 -0.11573306
0003e0 e4 44 d3 bd 7d e5 b6 3d 72 b9 9c bd 2c a5 6a 3e
       -0.10315874 0.0893049 -0.076525584 0.2291457
0003f0 cb 2a 23 be 53 37 1f be 8b f7 2b bc 02 52 8a bd
       -0.15934293 -0.15548448 -0.010496031 -0.06753923
