trained_models/rnn_model.pth (torch, 56611 bytes, 11 tensors)

rnn.weight_ih_l0 f4 [64, 3]
000000 dc 29 00 3e 7e fa 4a 3d 20 e5 ef bc 5e c2 95 3d
       0.12515968 0.049555294 -0.02928406 0.07312463
000010 f0 18 a1 bd 38 a2 ce 3c b6 d9 d2 bd 4d e5 00 3e
       -0.078660846 0.025223836 -0.10295431 0.12587471
000020 cc ac e1 3d 83 7c 33 bd dd 4e 0a 3d b0 a6 bf 3c
       0.110192865 -0.043819916 0.033766616 0.023394912
000030 f1 b8 ce 3d 62 51 82 bc 5c e1 76 3d fd f2 07 3c
       0.100938685 -0.015907947 0.060273513 0.008297679
000040 61 8c 0b 3d 38 5b 97 3c 5e 1b 08 bc f0 9c c0 3c
       0.034069423 0.018476114 -0.008307306 0.023512334
000050 ac e5 6b bd 87 0c c4 3b df 11 24 3d ae d2 a9 3d
       -0.05759208 0.0059829387 0.040056106 0.08292137
000060 8c 19 11 bb 78 5f 4b 3c 6c 93 10 bd 3c 90 f1 ba
       -0.0022140471 0.012412898 -0.035296842 -0.0018429826
000070 4c e5 2f bc 8a d8 fc bd ce d8 18 bc eb a3 a5 ba
       -0.010735821 -0.12345989 -0.009329034 -0.0012637352
000080 96 a3 c5 3d 4c fa 64 3c e5 5a 51 3d f8 31 9e 3d
       0.09650342 0.013975691 0.051112074 0.077243745
000090 14 cd 06 bd 0e ea 77 bb 00 e3 5f 3c 1e 3e df bc
       -0.03291042 -0.0037828716 0.013664961 -0.0272513
0000a0 70 5b ef 3c 08 d8 0a bd 03 86 5c 3c c1 d2 48 bd
       0.029218405 -0.03389743 0.013459685 -0.049029116
0000b0 b6 fb 93 3d 66 37 05 3d 1a 76 cc bc 70 38 b7 3c
       0.072257444 0.032523535 -0.024958659 0.022365779
0000c0 23 b8 b7 3d 7c 44 77 bd a4 6a fd bd 54 13 e0 ba
       0.08970668 -0.060368046 -0.12373856 -0.0017095604
0000d0 0c 47 1e bd d6 0e d2 3d 70 42 e8 bc d0 12 7e 3d
       -0.038641974 0.10256736 -0.028351992 0.06202966
0000e0 fc ec 21 3d f5 ec 1d bd d4 75 8f 3d 38 e4 b5 bd
       0.039532647 -0.038556058 0.07004896 -0.0888142
0000f0 4f 3b 1a 39 d9 79 90 bc 50 e0 1d 3d 9a f7 0a 3d
       0.00014708679 -0.017636226 0.038544 0.033927538
000100 38 7e 11 bd 78 57 d5 bc 75 51 82 3d b2 cc f9 bc
       -0.035520762 -0.026042685 0.06363193 -0.030493114
000110 8a ad 98 bd d6 2d ea bd 89 b8 3e 3e e4 9f 2a 3d
       -0.07454975 -0.11434524 0.18625082 0.04165639
000120 e4 ea fd 3d d3 2f b3 bd 98 eb fd bd bb 8d fa bd
       0.123983175 -0.08749356 -0.123984516 -0.12234064
000130 06 d3 07 bd 6c 61 4f 3d 65 d6 6a 3c f6 25 c4 3d
       -0.033160232 0.050630018 0.014333342 0.09577553
000140 74 34 84 bd f8 a7 dc bb 20 35 c0 3d e4 f3 4e bd
       -0.06455317 -0.0067338906 0.09385133 -0.05052556
000150 b0 49 1d 3d 92 f1 b4 bc 9a 71 92 3d 1d 6c ad bc
       0.038400352 -0.022087846 0.07150574 -0.021169716
000160 28 2a d9 3b c4 18 1c 3d 70 ac b3 3d b6 8b ae bd
       0.00662734 0.038109556 0.08773124 -0.085227415
000170 02 98 98 3d f6 57 80 3d 56 72 ab bd 96 ab 88 bd
       0.07450868 0.06266777 -0.08371417 -0.066733524
000180 a8 e0 1e 3d ee 2c 77 bd 2c 83 35 bd ea 89 16 be
       0.038788468 -0.060345583 -0.04431455 -0.14701048
000190 8d 3e ea bc 88 cc ff 3c 91 1d 6a 3d bb 00 0b be
       -0.02859428 0.031225458 0.057157103 -0.13574497
0001a0 40 28 40 3b b2 b9 60 bc c2 00 84 bd 3a f8 8c bd
       0.0029320866 -0.013716148 -0.06445457 -0.06883283
0001b0 5a fa 1d bd 75 8b 08 bd 5e e6 ff 3d 54 32 82 3c
       -0.038568832 -0.03333612 0.12495111 0.015893139
0001c0 34 b7 68 39 66 c4 ee bd 03 42 b4 bc d1 56 0c 3d
       0.00022193493 -0.11658554 -0.022004133 0.034262482
0001d0 c0 1f a0 3c ca 85 44 bd a1 ba a3 bc 58 42 99 bd
       0.01954639 -0.047979154 -0.019986453 -0.07483357
0001e0 f7 a8 4a bd 1b 3f 30 bd f0 ea 0d bc 50 95 63 bb
       -0.049477544 -0.043028932 -0.0086619705 -0.0034726448
0001f0 a3 2b d9 ba d2 59 95 bd 4f 41 bc 3a 81 76 ca bc
       -0.0016568791 -0.072925225 0.0014362725 -0.02471471
000200 f6 a5 d6 3d 0b 19 8c bd bd ac 1b 3e b0 87 1f 3d
       0.10480873 -0.06840714 0.15202613 0.03894776
000210 ff d1 e3 bd a6 03 a8 3d c8 df 0c bd 8c 5e 30 bd
       -0.11124038 0.08203821 -0.034393102 -0.043058917
000220 f9 a8 02 be 50 81 fe bd 59 6e 20 3d ba 94 a7 3c
       -0.1275977 -0.12427008 0.039167736 0.02045666
000230 5c 55 47 3d 79 92 32 be 9a 65 14 3e f2 ea bb bd
       0.04866539 -0.17438687 0.14491883 -0.09175672
000240 c9 1c b3 3c 60 2d 8a 3d 14 29 84 3d 66 e9 d4 3d
       0.021864312 0.06746936 0.064531475 0.1039608
000250 84 8b fc 3c f2 fc ca bd a4 1f 26 3c 56 7c 64 3d
       0.030828245 -0.09911527 0.01013938 0.05578264
000260 00 6e 60 bc 32 31 08 bd dc 31 6c 3d 2e e4 bb bd
       -0.013698101 -0.03325004 0.057664737 -0.09174381
000270 11 01 2b 3d 7b ad a0 3c a0 60 26 3d d8 52 dd bd
       0.041749064 0.019613972 0.040619493 -0.10806817
000280 d0 e7 3b 3d 40 06 e1 3c c6 68 c4 3c ed b7 ba bd
       0.04587537 0.0274688 0.023975741 -0.09117112
000290 84 ee 56 3d ca 9b 6e 3c 20 b1 90 bd ec e3 db 3d
       0.05247356 0.01456351 -0.07065034 0.10736832
0002a0 a4 8d 2b 3d 88 c5 be bd 52 92 81 bd 9f 76 da bb
       0.041883126 -0.0931502 -0.063267365 -0.006666973
0002b0 57 e5 38 3d 54 d5 02 bd 18 70 6f 3c 28 75 92 bc
       0.04514059 -0.031941727 0.014614128 -0.01787813
0002c0 4c 40 bf bd 7c fd 08 3e a2 66 a3 3d 3c 02 f1 bd
       -0.093384355 0.13377947 0.0797856 -0.11768004
0002d0 5b 9c c0 3b 69 a4 4a 3c 68 ae b9 3c fc 35 29 bc
       0.005878014 0.0123683 0.022666171 -0.010327812
0002e0 df 22 1b 3c 08 88 86 3d b4 f2 d3 3c 61 ca b7 bb
       0.009468763 0.06568915 0.025872566 -0.0056088422
0002f0 08 94 07 bd 94 1b 5f 3b 89 6e 18 3d 98 93 18 bd
       -0.033100158 0.0034043537 0.03721479 -0.03725013

rnn.weight_hh_l0 f4 [64, 64]
000000 c8 37 85 3d e0 6c e1 3d 17 61 eb 3c 54 ec ef bc
       0.0650478 0.110070944 0.02873282 -0.029287495
000010 a4 b3 dd bb 44 77 e5 bc d9 7d d6 3d a7 30 59 3d
       -0.0067657996 -0.028010972 0.10473222 0.053024914
000020 26 ce b7 bd 34 1b df bc 8b c8 66 3d eb 18 e2 bc
       -0.089748666 -0.027234651 0.056343596 -0.027599772
000030 d5 4e a1 3b b0 ce c1 bd 3f 28 e7 bd 4e 80 e8 bd
       0.0049227276 -0.09463251 -0.11286973 -0.11352597
000040 f7 02 bf bc 51 6d 30 3d ab 5f a9 3d e7 09 b6 3d
       -0.023316843 0.043073002 0.082702 0.088886075
000050 04 68 da bd 29 8c ba bd 20 a2 10 bd d8 ec 22 3e
       -0.10664371 -0.09108765 -0.035310864 0.15910661
000060 7b ea 04 bd 98 7d e6 bc b7 f8 72 3d 8f 16 60 bb
       -0.03245018 -0.02813606 0.059319224 -0.0034193133
000070 a6 9f c2 bd fa 49 ba 3d 75 50 e8 bd b8 a6 9b bc
       -0.09503107 0.09096141 -0.11343471 -0.019000396
000080 8c cc e9 bd eb 04 c3 3d c2 b1 c8 3d e8 1a 5f 3d
       -0.11415967 0.095224224 0.097995296 0.05446902
000090 85 8b 70 bd 3e 9c f7 bd e5 a7 ae bd 4d db c3 3d
       -0.058726806 -0.12090348 -0.08528117 0.09563313
0000a0 1f c7 54 3c d2 9a b4 3d 5b c2 8c 3d 46 52 90 3d
       0.012986927 0.08818592 0.06873008 0.070469424
0000b0 c5 f0 d8 3c 2e 29 a7 bd ed 36 90 bd 15 a5 9c bd
       0.026481995 -0.08162151 -0.07041726 -0.076486744
0000c0 65 bc 6b 3d 99 f4 69 bd 8d f3 34 bc a3 53 83 bd
       0.057552714 -0.057118032 -0.011044395 -0.06412437
0000d0 d7 0f 5d bd 26 0f 9d bd b6 56 89 bd c8 de 05 bb
       -0.053970184 -0.07668905 -0.06705992 -0.0020426977
0000e0 73 f6 d8 39 69 24 ad 3d 39 18 c7 bc aa e6 ad bd
       0.0004138235 0.0845421 -0.024303542 -0.08491261
0000f0 9c 9e a4 bc 8c d5 38 bd 8d 33 db bb 55 dd 0f bd
       -0.020095162 -0.04512553 -0.006689495 -0.035123188
000100 6d 1c 90 3c 45 fd 05 be da a8 a3 3d fb e5 aa 3d
       0.01759168 -0.13084896 0.0799119 0.083446465
000110 7f be 94 3d c9 82 f5 bd 5a 81 0a 3e fb e2 bb bb
       0.07262897 -0.11987836 0.13525906 -0.0057338453
000120 c5 d3 92 3d 09 32 2c 3e df 88 58 bd e0 f3 a3 ba
       0.07169298 0.16815962 -0.052864905 -0.0012508593
000130 b1 22 33 bd ff c3 01 be c8 ff 9e 3d 13 bf dc bd
       -0.043734256 -0.12672423 0.0776363 -0.10778632
000140 6f b7 bc 3d 31 3d 07 3e 29 9d df 3d 6d 60 35 3c
       0.09214675 0.13206936 0.10918648 0.011070353
000150 09 37 ba bd cc 5e 55 3d 90 0b 54 3d 9b 3b bd bd
       -0.090925284 0.05209236 0.05176884 -0.092398845
000160 a3 a1 ac bd 50 65 07 bd 54 27 44 bc a2 67 c0 bc
       -0.08429267 -0.033055604 -0.011972267 -0.023486916
000170 9c 96 84 bd 79 3a 18 bd 22 d5 04 be a2 95 68 3d
       -0.06474039 -0.03716514 -0.12971929 0.056783326
000180 2c e1 9b 3d 52 0e 99 3c 14 20 04 bd 97 2e 98 bc
       0.076113075 0.018683586 -0.032257155 -0.018576903
000190 c6 93 21 bd 57 da 0d be b0 b7 a6 3d 31 ac ec bc
       -0.03944757 -0.13852821 0.08140504 -0.028890701
0001a0 f2 b2 fd bd b3 e0 60 3d bf 7a 50 bc 1e 89 c8 bc
       -0.12387647 0.05490179 -0.012724577 -0.024479445
0001b0 39 fd c4 3c 18 bb bf bc 21 3f 9c 3c ee 11 28 bd
       0.024046527 -0.023404643 0.019073071 -0.041032724
0001c0 b8 4c 15 bd 92 81 8d 3d 30 ad 9a bc 64 13 13 bb
       -0.036450118 0.06909479 -0.01888141 -0.0022441978
0001d0 0e a6 9d bd f4 77 16 bc 0c 0f fc 3d 16 e1 fd 3c
       -0.07697688 -0.0091838725 0.123075575 0.030991118
0001e0 72 96 c6 bd b5 28 ef 3c 0a 3c e6 3d 87 f4 ab bb
       -0.09696664 0.029194215 0.1124192 -0.005247656
0001f0 49 58 85 3d 34 79 0c 3e c6 48 d7 3c b0 45 d4 3c
       0.0651098 0.1371811 0.026279818 0.025912136
000200 e4 c6 a7 bd 7c fd be bc 37 13 d5 3d 4f 93 18 3d
       -0.08192232 -0.02331423 0.104040556 0.03724986
000210 34 f6 f2 bd 95 1c 0e be ee b0 8c bd 75 d1 dd bd
       -0.11863366 -0.1387809 -0.06869684 -0.108309664
000220 fc fd a6 bd 10 9d 1c bd d4 45 58 3d d9 bc 80 bd
       -0.081539124 -0.038235724 0.05280097 -0.0628602
000230 a3 5b 5a bd e9 ef c6 bd dc 62 53 3d 6a dd f8 bd
       -0.053310048 -0.09713728 0.05160795 -0.121516064
000240 ea 52 a7 bc 09 68 5d 3d ac 9a a0 bd 3d ff 41 bd
       -0.020425279 0.054054294 -0.07842001 -0.047362555
000250 8f 91 ba 3c 71 0c 35 bd 52 af 93 bd b8 a5 f4 bd
       0.022774486 -0.04420132 -0.07211174 -0.11945671
000260 2c 6f c5 bd 5f 00 37 bd 60 ec b3 3d a3 fe ab bd
       -0.09640345 -0.04467809 0.08785319 -0.083981775
000270 f1 e6 52 bd 2c 23 f0 bb 97 e1 4c 3a 1f 73 cb 3d
       -0.051489774 -0.0073284116 0.0007815598 0.09934067
000280 75 11 df 3d 8b c1 ca 3d 3c 77 e0 bd 7f 2d e7 3c
       0.108920015 0.09900197 -0.10960242 0.028219936
000290 8b c1 71 3d f9 2f bd bd 0f 18 98 bd b1 02 d5 3d
       0.059022468 -0.09237666 -0.07426464 0.10400904
0002a0 3b 95 91 bb fe ea 40 bd 0b 97 c9 bd 6c b1 34 3c
       -0.0044428385 -0.047099106 -0.09843262 0.011028629
0002b0 41 f5 69 3d 56 20 5b 3d 43 a5 81 bb dc 3f 9a bd
       0.057118658 0.053497635 -0.0039564683 -0.075317115
0002c0 84 be 13 be a4 dc 82 bc d8 8a 8a 3d 6d 5b a6 3d
       -0.14428145 -0.01597435 0.067647636 0.08122907
0002d0 ca 5d 83 bd a5 1f 8e bc a8 3e af bd e6 1b 2c bd
       -0.06414373 -0.017349074 -0.085568726 -0.042018794
0002e0 e9 7e f5 3c e7 00 4b 3d de f5 c3 3d 62 65 1c be
       0.029967742 0.049561407 0.0956838 -0.1527305
0002f0 7c 01 1b 3d 50 ac c4 bd 07 92 98 bc da fd 7d 3d
       0.037843212 -0.096031785 -0.018624319 0.06200967
000300 a7 09 33 bb 58 78 b2 3d 02 c2 be bd 98 05 41 bd
       -0.0027318986 0.0871436 -0.09314348 -0.047124475
000310 77 1f 3c 3d 40 1d 83 3c bc 2b 48 bd 0d e5 aa bd
       0.045928445 0.016005158 -0.048869833 -0.08344469
000320 3d 9e ba 3d f3 c9 b3 3c 86 74 91 3d 74 d2 a0 bc
       0.09112213 0.021946883 0.07102303 -0.019631602
000330 57 fc 03 be ab 6b f6 3c 42 16 a9 3d 06 9d 80 bd
       -0.12889229 0.030080637 0.082561985 -0.0627995
000340 27 66 15 bd 0d d8 f6 3c b1 99 15 3d 06 00 94 3c
       -0.036474373 0.030132318 0.036523525 0.018066417
000350 2e 37 1b bd aa 94 d4 bd 36 07 00 be 9e 55 7c bd
       -0.03789442 -0.10379918 -0.12502751 -0.06160509
000360 d1 c7 a8 bd 91 36 03 3d e7 86 2f 3c 8a 93 83 bd
       -0.08241237 0.03203446 0.010713316 -0.06424625
000370 81 2a b0 3d ec 55 f6 39 11 6c 7c 3d 87 4c df bd
       0.08601857 0.00046984793 0.061626498 -0.10903268
000380 6a e2 c1 bd a4 65 8e 3d 61 31 e2 bd b7 f7 b8 bd
       -0.09467013 0.0695298 -0.110445745 -0.09031623
000390 95 0a 80 bc 6a ed e1 bd f5 7a f1 bd 6f 06 ac 3d
       -0.015630046 -0.11031611 -0.1179103 0.083996646
0003a0 21 30 0b 3e f4 cb 5e 3d 09 f9 3d bd 5a b9 e0 bd
       0.13592578 0.054393724 -0.046380077 -0.10972853
0003b0 47 11 84 bc c4 2b c7 bc 09 96 f5 ba 98 f5 b0 bb
       -0.01612152 -0.024312861 -0.001873673 -0.005400371
0003c0 c4 8a 60 bd 1c ef 12 3d 2c 50 f4 bd ce 5c 54 3d
       -0.054819837 0.035872564 -0.11929354 0.051846318
0003d0 35 c4 99 bd 5a c7 12 bc fd 22 6a bd 54 38 86 3b
       -0.07508127 -0.008958662 -0.057162274 0.0040960703
0003e0 e0 72 ae bd 50 fe ad 3d 0b a8 ae 3b 30 14 a5 3d
       -0.085180044 0.08495772 0.005330091 0.08060491
0003f0 00 1c 14 3e d6 bd b4 bd 3b 32 0b be 9a b7 17 3d
       0.14463806 -0.08825271 -0.1359338 0.03704033

rnn.bias_ih_l0 f4 [64]
000000 fc 08 0b bc 0b ca 49 bb 6d 88 77 ba 8b d5 ce 3d
       -0.008486029 -0.0030790593 -0.0009442631 0.10099324
000010 0b 64 46 bd 0f 0f f0 bc 8c 8a 1c 3d 33 96 c2 bc
       -0.048435252 -0.029304055 0.038218066 -0.023753261
000020 34 fb 0d 3d a6 13 8b 3d 3f a7 86 bd 0d e2 58 bd
       0.034663394 0.06790857 -0.065748684 -0.052949954
000030 08 cb e5 3c fc 1b 1e 3c 32 07 7c bc bd 05 b4 3c
       0.028050914 0.009650227 -0.015382575 0.021975392
000040 ab 53 0d bd 5b 1d cc 3d 98 40 b2 3c 0e 87 63 3c
       -0.03450362 0.099665366 0.021759316 0.01388718
000050 d3 b0 c2 3d de 04 7a bd 6e 89 af 3c 44 62 cf bc
       0.09506383 -0.061039798 0.021427836 -0.025315411
000060 d6 28 a4 bd 3b eb f1 3d da 27 83 bd 99 e0 79 3c
       -0.08015601 0.11812445 -0.064040855 0.015251302
000070 6b d8 59 bd 38 f5 33 3d 2b 20 f3 3c cd cb c0 bd
       -0.053184908 0.04393503 0.029678425 -0.09413872
000080 13 4e 74 bb 97 91 67 3d 0e 99 8f 3d db f7 b2 3d
       -0.0037277981 0.05653533 0.07011615 0.08738681
000090 62 1c 8a bb d3 39 5d 3d 6c b6 bf 3b 5a 58 30 3d
       -0.0042148093 0.054010224 0.005850604 0.04305301
0000a0 a4 30 1a ba d5 0c 08 3e 8f 70 57 3d f2 58 c5 bd
       -0.0005881882 0.13286145 0.05259758 -0.096361056
0000b0 7a 01 1d bd 5f c3 6d 3d 87 6d a8 bc 28 a5 2d bc
       -0.038331486 0.05804765 -0.02056004 -0.010598458
0000c0 1f 42 d8 bc c2 13 91 bd 6e f5 36 bd 20 d9 c8 39
       -0.026398716 -0.07083847 -0.044667654 0.00038308743
0000d0 10 27 06 3d 54 b6 c5 3d 70 71 43 3d 6c a1 85 bc
       0.032752097 0.09653917 0.047715604 -0.016312324
0000e0 c2 1a 67 3d ca ba 1b 3c d4 37 b5 bc b3 d4 ec 3c
       0.056422003 0.009504983 -0.022121347 0.028910017
0000f0 a9 a8 9f bd ae ce 04 3d 5e 9e 5a bd 6b b6 86 3d
       -0.07795841 0.032423668 -0.053373687 0.06577762

rnn.bias_hh_l0 f4 [64]
000000 06 0b 22 bd a9 9a 46 bb 23 96 70 3d bf 48 92 bd
       -0.039561294 -0.0030304587 0.05873693 -0.071427815
000010 74 33 81 bc ed 6b 8e 3d 70 c2 50 bd e7 4c d3 bb
       -0.015771605 0.06954179 -0.05096668 -0.0064483765
000020 d1 7b 61 bd 04 c6 4d bd 83 92 11 3d 5f ba ba 3c
       -0.05504972 -0.05023767 0.035540115 0.022793947
000030 3a 7e 51 bd 23 01 d7 bc 3f 14 88 3d d4 a3 81 3c
       -0.05114577 -0.02624566 0.06644487 0.01582519
000040 1f d3 50 bd 60 a7 16 bd 55 21 21 bd c8 b7 7a 3c
       -0.05098259 -0.036780715 -0.03933843 0.015302606
000050 10 8d b5 bd 61 cd 84 3d f6 81 56 bd 68 e9 2a 3c
       -0.08864796 0.064844854 -0.052370034 0.010431625
000060 41 51 35 3d 07 b6 2f bd 56 86 be bc 95 79 42 bd
       0.044266943 -0.042898204 -0.023257416 -0.04747923
000070 17 fc 05 3d 9c be 42 bd ac 84 ad bd a9 d0 98 3d
       0.032711115 -0.04754506 -0.08472571 0.07461674
000080 e0 f0 9f b9 26 2f 5c bd c7 59 51 bd 62 07 11 bd
       -0.0003050631 -0.0537559 -0.05111101 -0.03540743
000090 98 fb 40 3d fd ac 47 3c 89 de 71 3c d4 a2 7a bc
       0.04711494 0.01218724 0.014762529 -0.01529761
0000a0 91 a5 4c 3d 1c 3c d8 bd 2d c4 e5 bc 95 4c 94 3d
       0.049962584 -0.1055834 -0.028047645 0.07241169
0000b0 a6 7e e5 3d eb f4 80 3d 21 4e c0 bb 88 e1 ba 3d
       0.11205797 0.062967144 -0.0058686887 0.09125048
0000c0 fd ac 15 bd c5 4c d6 bc 3a 25 79 bc e7 0f c5 3b
       -0.036541928 -0.026159653 -0.015206629 0.0060138586
0000d0 14 ef ca bd 6d 36 8b 3b d7 e6 f7 3c a1 52 a2 3d
       -0.09908882 0.0042484314 0.03026144 0.079259165
0000e0 b0 96 03 bd d5 0b 56 3d a1 bc 04 bd 13 83 8e bd
       -0.03212613 0.052257378 -0.032406453 -0.06958594
0000f0 3b 08 61 3d e2 46 03 bd 30 31 75 3d 0f 8f 30 bd
       0.05493949 -0.03205002 0.059861362 -0.04310518

rnn.weight_ih_l1 f4 [64, 64]
000000 e4 bd 60 3d 6d 73 0d be e7 ce ae bd 59 3d 51 3b
       0.054868594 -0.13813563 -0.08535557 0.0031927435
000010 36 da e9 bd ab f7 82 bd 71 4d 81 bd 4f dd e6 3c
       -0.114185736 -0.06394895 -0.06313599 0.0281817
000020 90 97 c8 3c bd 30 cd bc 9a 77 18 bc 71 f8 25 be
       0.024486333 -0.025047654 -0.009305859 -0.16208054
000030 87 26 e3 bd 32 f7 b6 bc 6d 0b 8f bd 8e 3b b8 3d
       -0.11091333 -0.022334669 -0.06984601 0.08995734
000040 4b c2 7a bd a0 10 aa bc 28 fd e9 bd 18 83 5c bc
       -0.06122045 -0.02075988 -0.11425239 -0.01345899
000050 d1 58 49 3d d1 b7 f5 bd 33 00 6c 3d 59 7d c9 3d
       0.049156968 -0.11997951 0.057617377 0.09838361
000060 ac 1c a3 bd dc 80 94 3d fb fe f6 3c ce bc 85 3c
       -0.07964453 0.072511405 0.030150881 0.01632538
000070 23 6f 5d 3d 04 16 8d bd cb 8b 5c 3d fe d4 af 3d
       0.054061066 -0.06888965 0.053844254 0.08585547
000080 06 ad ae bd 2c 04 95 bd 4f 2a f3 bd 4e 9b f8 3c
       -0.08529095 -0.07276186 -0.11873304 0.030347493
000090 2b 37 00 be 61 3b b6 bd 6a 24 f3 bc 1f 96 e4 bd
       -0.12521045 -0.088980444 -0.02968045 -0.11161446
0000a0 f3 02 7b bd bf 46 32 3e 54 e6 3f 3d bf ec aa 3d
       -0.06128211 0.174098 0.046850517 0.08345937
0000b0 a1 7e 58 bd 13 4e ce bd dc 94 66 bc 08 cb 79 bc
       -0.052855138 -0.10073485 -0.014073577 -0.01524616
0000c0 96 e3 9e bd 72 48 0c 3d 52 30 43 bd 1c ba 06 bc
       -0.07758252 0.034248777 -0.047653504 -0.008223083
0000d0 d2 04 98 3d cd ce 94 3c 4d 6f 83 3d e5 60 8a bc
       0.074227944 0.018165017 0.06417713 -0.016891906
0000e0 c8 8e 4e bd a7 52 7d bd 19 ba c3 bc d4 08 15 bd
       -0.050429136 -0.0618464 -0.02389245 -0.036385372
0000f0 61 5c 15 bc b6 64 db 3b 9c 5f e3 bd 05 39 bd bb
       -0.009116263 0.0066953553 -0.111022204 -0.0057746195
000100 62 96 e7 3c 0e 98 ef bd ef ec c5 3d 14 48 14 3d
       0.02826995 -0.11698924 0.09664332 0.03620155
000110 07 f5 b4 bd e2 81 0d 3d d9 46 c0 3d d9 f3 e4 bd
       -0.08835798 0.034547694 0.09388513 -0.11179323
000120 1d 26 01 be 47 a1 dc bb 6c 04 2d 3c d0 ac 31 3d
       -0.12612195 -0.006733093 0.010560136 0.043377697
000130 33 70 0b bd e5 16 a0 bc df d0 a6 3d 67 e7 07 be
       -0.03404255 -0.019542167 0.08145308 -0.13271867
000140 45 be 13 bd f3 1d 91 bd 0a 6f 6c 3d 90 80 a6 3d
       -0.036070127 -0.070857905 0.057723083 0.0812999
000150 3d 29 bb bd 2b f7 2c bc d6 5e de 3d fe cc f5 3c
       -0.09138725 -0.010556976 0.10857932 0.030004974
000160 d9 4e ed bc 2c 21 8f bd 76 45 92 bd 06 a5 92 bb
       -0.028968262 -0.06988749 -0.07142155 -0.0044752387
000170 2c cd f8 bb f0 85 62 3d 69 32 9a bc a3 0a 31 ba
       -0.007592818 0.055303514 -0.018822866 -0.0006753599
000180 f0 09 0b bc 65 45 49 3d 7a e8 b0 bd 9d d0 38 be
       -0.008486256 0.049138445 -0.086380914 -0.1804833
000190 8c 9c e4 bd 10 9c 01 be 45 ba 5b bd 2c cc 72 3d
       -0.111626714 -0.1265719 -0.053644437 0.059276745
0001a0 08 27 42 bd 3e 11 16 bd cf 34 49 bd bf 6d c3 bc
       -0.047400504 -0.036637537 -0.049122628 -0.023856042
0001b0 bb 48 e9 bc 74 43 c6 bd 01 c7 90 bd 40 3d 8e 3d
       -0.028477063 -0.096808344 -0.07069207 0.06945276
0001c0 f1 a2 1d bd 67 dd 7e 3d 79 b6 24 bd 2c e7 bd 3d
       -0.03848547 0.062222864 -0.040213082 0.09272608
0001d0 d4 cc 2d 3b 4a 13 b0 3d 7f 7d 0e 3e 09 3b 9b 3d
       0.0026519792 0.08597429 0.1391506 0.075796194
0001e0 a4 8a 98 3d 59 72 4f bd 1a 69 94 bd 27 5d ae 3d
       0.074483186 -0.05064616 -0.07246609 0.08513861
0001f0 66 90 a8 b9 0a 6a fa 3c 5d 43 a9 3c 78 68 06 bd
       -0.00032151042 0.030568141 0.020662004 -0.032814473
000200 18 40 5f 3d 37 88 7d bb 37 94 e8 3d f1 0b 9a bd
       0.054504484 -0.0038685927 0.11356395 -0.07521809
000210 03 7c 51 bd 16 73 87 bc b4 a4 3a 3d d7 5c f6 bd
       -0.051143657 -0.01653437 0.04556723 -0.120294265
000220 0b 40 d9 bc 77 47 53 3d d1 19 86 bc cf 4f 06 3d
       -0.026519796 0.051581826 -0.016369732 0.032790955
000230 43 9f 5f bd eb e0 88 bd 6a 31 87 bd 62 97 5a bc
       -0.054595243 -0.06683525 -0.06601222 -0.013341757
000240 c1 ec 5a bd 63 3f 81 3d d6 7a d5 39 81 38 8f bd
       -0.053448442 0.06310918 0.00040718046 -0.06993199
000250 7a cf b0 3d d5 62 1d 3d cb a6 52 3d 57 af 63 bd
       0.08633323 0.03842433 0.051428597 -0.05558714
000260 8d d3 98 3d d7 99 85 bd 55 39 ab 3d bd e2 7f bd
       0.07462225 -0.06523483 0.083605446 -0.062472094
000270 ab a5 6d 3d 9c c6 81 bd bb 32 ad 3d e1 8f f5 bd
       0.05801932 -0.0633671 0.08456942 -0.11990333
000280 be 34 fe bc 51 79 0e bc 41 96 90 bd 24 62 49 bd
       -0.031031009 -0.008695916 -0.07059909 -0.04916586
000290 2b ce 06 bd 0e a8 ae 3a b9 d0 24 3d 5c f3 59 bc
       -0.03291146 0.0013325231 0.040238116 -0.01330265
0002a0 18 fc 11 3e 5c 0a 30 3c f2 d1 21 bd 12 dd 57 bd
       0.14256322 0.010744657 -0.03950686 -0.052701063
0002b0 4f 39 ad b9 1d 9e 4e 3d 64 63 ed 3d d1 ef 3b 3d
       -0.0003303983 0.050443757 0.11591223 0.045883004
0002c0 11 ae dd bd c2 b3 6d bd b3 ba c0 bd 9d 89 0b be
       -0.10824216 -0.05803276 -0.0941061 -0.13626714
0002d0 40 c8 e6 3c 5c d6 ca 3d d4 83 9e 3d 36 bf 4a 3c
       0.028171659 0.09904167 0.07739988 0.01237469
0002e0 ba ee 28 3c 39 ad a8 bd 44 f8 f9 bc eb 13 ae 3d
       0.010310823 -0.082361646 -0.03051389 0.08499893
0002f0 5d 52 95 bd dd cc fc 3c fe 21 c0 bd 95 d1 49 bd
       -0.072911 0.030859405 -0.093814835 -0.04927214
000300 ae e0 89 3d 32 63 80 bd 38 9b 48 3d ab 2c c4 bd
       0.067323074 -0.0626892 0.048976153 -0.09578832
000310 a0 6a 5c bd 56 6f 95 3d 21 d2 24 3e ff 23 81 bc
       -0.053812623 0.07296626 0.16095783 -0.015764235
000320 7e 7a b5 bd 1f 26 a0 bd d0 56 26 bb 1e c6 dc bc
       -0.08861254 -0.07819771 -0.0025381334 -0.026949938
000330 ef 04 ed 3d 88 bb a7 bd b3 7b c9 3d fa 87 2d 3d
       0.11573207 -0.081900656 0.09838047 0.042366005
000340 5d 16 d8 bd d7 16 a0 3d 75 96 82 3c 8c 39 33 bd
       -0.105511405 0.07816856 0.015940884 -0.043756053
000350 4c 53 93 bd 90 ab 96 bd 9d 4b aa bc dd 73 20 3e
       -0.07193622 -0.07356942 -0.020788008 0.15669198
000360 b8 20 3b bd 03 4d d0 bd 5a 2d 12 be c8 ab 1c 3d
       -0.0456855 -0.10170939 -0.14275113 0.03824976
000370 fa 71 2e 3e 07 6d 75 3d 1e 9d c4 bd fa 92 bf 3d
       0.17035666 0.05991843 -0.0960028 0.093542054
000380 a6 1a 11 bc b6 05 29 bb 47 0f bc 3d 09 f6 db bd
       -0.008856451 -0.0025790757 0.091826014 -0.10740287
000390 3e 00 02 bd a6 42 41 3d 0e 5a 8a bd 1f ad 4a 3d
       -0.031738512 0.0471827 -0.06755458 0.049481507
0003a0 a4 84 e5 3d 76 ab 8c 3d 89 a0 e9 bc d2 9d 54 bc
       0.1120694 0.06868641 -0.028518932 -0.01297708
0003b0 6c 0a cb bd 0f f3 3c 3d 10 45 23 bd 23 09 02 3e
       -0.09914097 0.046130236 -0.039860785 0.12698798
0003c0 53 8c 91 3d e0 e2 3e 3d 9a 7b 82 bd f7 75 9c 3d
       0.07106843 0.046603084 -0.063712314 0.076396875
0003d0 2d 3d fb 3d f9 3b 71 bb cd 67 a8 bd d1 27 6d 3c
       0.12267528 -0.0036809428 -0.082229234 0.014474825
0003e0 80 0a 9b 3b 7b b3 87 bc bc a1 4a 3d d3 95 ea 3d
       0.0047314763 -0.016565075 0.04947065 0.11454358
0003f0 91 0f d6 bd 0f 9d b5 3b fa 86 72 bd e5 0e 49 3d
       -0.10452188 0.0055424045 -0.059210755 0.04908647

rnn.weight_hh_l1 f4 [64, 64]
000000 94 ca 0c be 09 94 4f bd 5a ac 01 3d 26 f1 9b bd
       -0.13749152 -0.050678287 0.031658508 -0.07614355
000010 17 31 db 3c c0 a6 e2 3c 98 bf cd bc 8f 41 4f 3b
       0.026756806 0.027667403 -0.025115773 0.003162477
000020 69 f8 2d 3c a4 50 82 3d 88 99 d0 bd 40 f6 5f bd
       0.010618308 0.06363037 -0.10185534 -0.0546782
000030 e1 b5 50 bd 90 ba b2 bd a5 d7 2e bd c6 a6 56 bd
       -0.050954703 -0.0872699 -0.042686123 -0.05240514
000040 4f 79 a1 3d 1f 45 e9 3d 24 af ce bc fe 47 e5 bd
       0.07884466 0.11390137 -0.025229998 -0.11195372
000050 f1 b2 74 3d 33 60 af 3c b4 05 29 bd 68 ff 29 bc
       0.059740964 0.021408176 -0.041265205 -0.010375835
000060 b5 ae e4 3b 06 6c 88 bd 15 bd 40 3d e4 8c a9 bd
       0.0069788345 -0.06661229 0.047055323 -0.08278826
000070 4b 4e 8b bd 39 9b ce 3d 93 fb 48 bd 09 8d 52 bd
       -0.068020426 0.100882 -0.049068045 -0.051404033
000080 db f7 a3 bb d7 c8 81 bd 12 f9 80 bd bb ee 00 bd
       -0.005003912 -0.06337135 -0.062975064 -0.03147767
000090 3b 9d b3 bd f1 50 16 3a 79 db 88 3d c3 cb 45 bd
       -0.08770224 0.0005734107 0.06682486 -0.048290025
0000a0 85 4e 18 3c 4c d2 7b bb a6 93 cc b9 35 26 56 bd
       0.009296064 -0.0038424907 -0.0003901992 -0.05228253
0000b0 8e ec 74 3c 6c 0f 3a bb f6 7d d0 bd 41 9b 94 3d
       0.014948977 -0.002839054 -0.10180275 0.07256175
0000c0 c2 b2 4b 3d 8c 07 83 3d 68 40 fb 3c 99 9f 9d 3d
       0.049731024 0.06397924 0.03067036 0.076964565
0000d0 b9 69 8c 3c e2 f5 19 3d 92 b4 8e 3d 37 53 09 be
       0.017140256 0.037588008 0.06968035 -0.1341065
0000e0 13 1a 45 3b be 7f 94 3d 2e 6b 1a bd 91 1a 8f bd
       0.0030075356 0.072509274 -0.03769987 -0.06987489
0000f0 b7 7a 1a bd b6 5d d7 bc 91 17 52 3d 5c c7 16 3d
       -0.037714686 -0.026289802 0.051292006 0.036811218
000100 bf fb 16 3b a8 3f 57 be ac ea f4 bc bb 1c 37 3d
       0.0023038236 -0.21020377 -0.029897057 0.044705134
000110 74 f3 a7 bd 08 21 8a 3d 90 c0 92 bd b6 bf 67 3d
       -0.08200732 0.067445815 -0.07165635 0.056579314
000120 f1 a7 aa 3d 24 ae 55 3d 03 40 10 bc 02 72 c7 3d
       0.083328135 0.052168027 -0.008804324 0.09738542
000130 de c8 2e 3c f9 dc fe bd c6 78 81 3d 4f fe 93 3d
       0.010668008 -0.12444491 0.06321864 0.0722624
000140 3d f5 8a bc 12 3d 7b 3d 86 73 49 3d 90 8a 90 3c
       -0.016962642 0.061337538 0.049182437 0.017644197
000150 5d 84 b9 3d 6b 16 72 bc a8 23 81 bd 3a 9b 83 bd
       0.090584494 -0.014775853 -0.06305629 -0.064260915
000160 86 e5 bf 3c a2 51 fb bd 8c 65 d5 bc be 28 8f 3c
       0.023424875 -0.122714296 -0.026049398 0.017475482
000170 e5 83 21 bd 2f 08 4a bd 79 e0 5f bd be 0e 61 3c
       -0.039432425 -0.04932421 -0.054657433 0.013736425
000180 6b 21 88 bc 44 b2 7a b9 74 e6 a1 ba cb 21 13 3d
       -0.016617497 -0.00023908267 -0.0012352006 0.0359209
000190 03 31 26 bd 88 84 bf 3c c9 7a 98 3b 5c 5f 31 3b
       -0.040574085 0.023378626 0.004653309 0.0027064895
0001a0 2a ee 82 bd 7d 30 9c bd 56 2a 95 bb 92 0d 42 bb
       -0.063930824 -0.07626436 -0.004552166 -0.002961014
0001b0 a6 40 72 3d 08 72 02 3e 21 9b bc 3d 8e 37 95 3d
       0.059143685 0.12738812 0.09209276 0.07285987
0001c0 4d fb a8 3c fc 14 d4 3c 28 30 9d bd f3 85 1d 3d
       0.020627642 0.025888912 -0.07675201 0.038457822
0001d0 7c ad 8f bc b4 c2 33 bd ff a3 8a bd 13 33 bc 3d
       -0.017538778 -0.043886855 -0.06769561 0.09189429
0001e0 53 da 92 3d 16 91 98 bd 75 e0 a8 bd 13 ef 73 bc
       0.07170548 -0.07449548 -0.08245937 -0.014888543
0001f0 de 4a 28 3b 01 50 6e bd 98 84 e1 bd d7 3a c9 bd
       0.002567939 -0.058181766 -0.110116184 -0.09825676
000200 42 0d a8 3b 86 c9 8e 3d da 9c c2 bc 9b 2a 4b bc
       0.0051285336 0.06972031 -0.023756433 -0.012400295
000210 39 b3 a8 bd cc ee 8d bd 4d b5 ee bd 52 ad e3 bd
       -0.08237309 -0.069303125 -0.11655674 -0.111170426
000220 5a 51 94 bd f7 16 b1 bd 13 f0 a3 bc 49 57 c9 bd
       -0.07242079 -0.08646958 -0.020011937 -0.098311014
000230 e9 d8 7f 3d e5 9a 6e bc 32 54 ac 3b 4a b5 f3 ba
       0.06246272 -0.014563297 0.0052590603 -0.0018593457
000240 56 c6 00 be e1 0d 6b bd 1c ff 06 bc b3 8a b4 bc
       -0.12575659 -0.057386283 -0.008239534 -0.022038793
000250 6f a3 8d 3d 75 32 6c bd 94 81 f4 3d 23 b6 e8 3d
       0.06915938 -0.057665307 0.119387776 0.11362865
000260 ad 3f ad 3c 7a 08 82 bd 72 74 55 3d ab d4 a8 bd
       0.021148527 -0.06349273 0.052113004 -0.08243688
000270 3a f8 5a 3d c8 f4 68 3d 96 3b d7 3d 23 69 2f 3d
       0.053459384 0.056874067 0.10509412 0.042824876
000280 c2 95 0d 3d 5e fb 04 3c e4 ce e8 bd 68 7d cd 3d
       0.03456665 0.008116571 -0.11367586 0.10033685
000290 6f de 56 bd 9a dc 16 3d 09 0b 79 bd 16 58 8a 3d
       -0.052458223 0.036831476 -0.06080154 0.06755082
0002a0 f0 00 a6 bd bc 98 b0 3b d5 6c c1 bc 81 52 1b bd
       -0.081056476 0.005389301 -0.023611465 -0.03792048
0002b0 66 70 fb bd fb ce 52 3d 3b 97 7d bb 01 70 17 be
       -0.12277298 0.051466923 -0.0038694877 -0.1478882
0002c0 f3 58 63 3d 40 ab 2e 3d 32 13 4a bc 99 3c c0 3d
       0.05550475 0.042643785 -0.012333678 0.09386558
0002d0 fe 9b c7 3c 26 5f 23 bd a2 4b aa 3d 6a 58 d8 3d
       0.024366375 -0.039885662 0.08315207 0.10563739
0002e0 b2 f2 88 bc 49 e9 9c 3a 40 5b 4d 3c 8f 79 57 bd
       -0.016717289 0.001197138 0.012533963 -0.05260616
0002f0 64 53 91 3d f9 4f 71 bd dd 3f 99 bb fa c5 aa 3d
       0.070959836 -0.05891416 -0.0046768025 0.08338542
000300 05 11 a9 bd 41 62 4f bd c4 23 cf bd fc b9 8c 3d
       -0.08255199 -0.05063081 -0.101142436 0.06871411
000310 d2 52 18 bd 26 15 96 bd 25 50 09 3e 3e 20 99 bc
       -0.03718836 -0.073282525 0.13409479 -0.018692132
000320 d4 ef 91 bc 00 b5 87 3d 12 db e7 bd f2 b5 2a bd
       -0.017814554 0.0662632 -0.11321081 -0.041677423
000330 b1 e9 26 bd 5a 8c 0c bd 1b 63 50 bd d5 52 f6 3d
       -0.04075021 -0.034313537 -0.050875764 0.12027518
000340 9c d1 e2 bc b7 4c 49 bd 71 60 a3 3d 5c 5a 6e 3d
       -0.02768784 -0.049145427 0.07977379 0.058191642
000350 f4 bb 30 bc b0 f7 22 3c 63 c3 b4 3d 08 f4 58 bd
       -0.010786999 0.009946749 0.088263296 -0.0529671
000360 92 4b b9 bd 14 a2 ea bd 28 ad 2e bd c9 f2 76 3d
       -0.09047617 -0.11456695 -0.042645603 0.06029013
000370 89 63 4b 3c 8b 17 65 bd 60 8c d0 bd 32 13 02 be
       0.012413868 -0.055930655 -0.101830244 -0.12702635
000380 56 b1 a7 3c 12 f2 0e 3d 4a 95 82 bd a9 2b 06 be
       0.020470303 0.034898825 -0.06376131 -0.13102593
000390 79 6f f1 3c 38 5a 17 3b 9f a4 1a 3e e6 a0 9b bd
       0.0294721 0.0023094546 0.1510186 -0.07599048
0003a0 3b 21 a6 bd 1c a8 6a 3c af 67 a3 3d 6e f0 f0 3c
       -0.08111807 0.014322307 0.079787605 0.02941152
0003b0 be 33 a5 3d 36 8e c0 3d 9c 19 66 3d 08 ef 39 bd
       0.0806651 0.094021246 0.056176767 -0.045393974
0003c0 be 14 4e 3d f0 16 c4 bd 83 98 97 3d 55 21 4c 3d
       0.05031275 -0.095746875 0.07402136 0.049836475
0003d0 f0 ac 36 bd fc de 62 3d 4b 59 9c bc 2c 52 b2 3d
       -0.04459852 0.055388436 -0.019085547 0.08707079
0003e0 5f 1f af 3d b9 0b 12 3c 9e 4b 48 bd 6e 0b 6f 3d
       0.085509054 0.008913928 -0.04890024 0.05836051
0003f0 b5 d8 c1 3d db 99 4c bd 0d bd c5 3d e6 31 1b bb
       0.09465162 -0.049951416 0.09655199 -0.0023680865

rnn.bias_ih_l1 f4 [64]
000000 c2 9c 95 3d a4 c2 89 3d 8b a8 bf bc 67 cd 56 bd
       0.0730529 0.06726578 -0.023395797 -0.05244198
000010 32 93 4f bd d3 39 47 bc 83 fc 17 bd 60 b5 b9 3d
       -0.050677486 -0.012159782 -0.03710605 0.09067798
000020 97 e0 85 3c 95 09 95 3d e9 68 46 bd 20 e6 b9 3c
       0.016342444 0.07277218 -0.048439894 0.02269274
000030 18 bd fc 39 75 39 1f bd 30 d0 14 bd fc 43 b6 3d
       0.0004820607 -0.038873155 -0.036331356 0.08899686
000040 24 64 eb 3b 21 1c 00 3d 1f 76 31 3d 5a 55 02 bd
       0.0071835686 0.031276826 0.04332554 -0.03181968
000050 48 36 b9 bd 57 71 68 3d c0 f1 25 3d 1e 3b 23 3d
       -0.090435565 0.056748714 0.040513754 0.0398513
000060 1c 26 71 bd 43 fe f3 3c c4 cb 7a 3d 41 f6 f2 bc
       -0.058874235 0.029784327 0.061229482 -0.029658439
000070 53 32 ed 3c 3f 06 c9 bc 29 93 cd bc e7 47 00 bc
       0.02895466 -0.024539111 -0.025094585 -0.007829643
000080 19 1f 85 bd 9b 55 bf bc 4c 29 5f bc 27 ad 9f bd
       -0.06500072 -0.02335625 -0.013620686 -0.07796698
000090 5a 51 91 3a 1d f5 e3 3c 2d ad fb bd 69 55 9a bd
       0.0011086867 0.02782684 -0.1228889 -0.07535822
0000a0 aa a1 b0 3d 7b 88 77 bd 32 8b 57 3c 57 9c 40 bd
       0.08624585 -0.060432892 0.013155745 -0.047024097
0000b0 c6 83 77 bd a8 d7 21 3d 43 4a aa 3c a4 77 2c 3d
       -0.060428403 0.039512306 0.020787364 0.042106286
0000c0 f5 3a 7a bc 1f 1d 8d bc 31 9d 34 3d ce ee 2a 3d
       -0.0152728455 -0.0172258 0.044095222 0.04173165
0000d0 9d 63 8b 3c 69 7d 2e 3c e8 1f 15 3d 6a 57 03 3e
       0.017015273 0.010650017 0.03640738 0.12826315
0000e0 89 e3 3a 3d f9 e4 23 bd f3 29 02 3c 67 75 f7 3d
       0.04562715 -0.040013287 0.007944572 0.120829396
0000f0 c6 0b 29 bd a3 34 96 bd 33 20 b8 3d 3a 89 ac bd
       -0.041270994 -0.073342584 0.089905165 -0.084246114

rnn.bias_hh_l1 f4 [64]
000000 65 34 06 be 6b 53 dc bd 5b 7f b6 3c ab 90 d2 bb
       -0.13105924 -0.10758098 0.022277525 -0.006425937
000010 ae a3 de 3d 72 ff e6 bb f0 e6 cc 3c cb d0 ac bd
       0.10871063 -0.0070494944 0.025012463 -0.084382616
000020 55 dd 67 bd 36 27 b2 3d a8 4e 86 bc 70 70 ec bc
       -0.056607563 0.08698885 -0.016394928 -0.028862208
000030 f0 ae 1b 3c f8 8c b1 3b 8c 6b 8e bd 81 a8 6f bd
       0.009502158 0.005418416 -0.06954107 -0.058510307
000040 b0 09 83 3d e9 f9 b2 bc 91 4f bf bc 4a 72 f6 3c
       0.06398332 -0.021847682 -0.02335337 0.030083794
000050 28 ae b2 bd f7 c9 b5 bd 21 b0 b7 3c 7f 02 f6 3b
       -0.08724624 -0.08876412 0.022422852 0.007507622
000060 72 36 3a 3d 0f 36 8a bc 03 17 36 3d 25 6d 3b 3d
       0.04546208 -0.01687148 0.04445554 0.045758385
000070 8a 7b 3b 3d 45 fb 40 3d c6 41 74 3c 00 22 49 3d
       0.045772113 0.04711463 0.01490826 0.04910469
000080 d7 5f e7 3c cf 9c 3b bd 67 cc 6f 3d da 0e 1d 3d
       0.028243942 -0.04580384 0.058544543 0.03834424
000090 9c 72 21 3b ab f0 1c bd 3c 8e d2 3d 03 73 01 3d
       0.0024634963 -0.038315456 0.10281035 0.031603824
0000a0 f5 fd 05 bd 7c 17 cd 3a c3 31 11 bd ee 67 70 3c
       -0.032712895 0.0015647258 -0.035447847 0.014673216
0000b0 fe 82 95 3d 77 52 9e 3c 2b 6e cc bc 10 02 6e bc
       0.073003754 0.019326432 -0.024954876 -0.014526859
0000c0 64 6b a8 3c 8d e2 29 3c 77 8d bb bc 5a 6d 9f 3d
       0.02055902 0.010368955 -0.022894604 0.07784529
0000d0 ca 1a 3d bc ee 3b b4 3c 10 4e 3b bd 41 89 87 bd
       -0.011542032 0.022001233 -0.045728743 -0.06617976
0000e0 f7 58 f1 3b 65 62 44 3d ca e9 2b bd cb 0b d6 bd
       0.0073653418 0.0479454 -0.041971005 -0.10451468
0000f0 a2 e1 92 bc d2 7a ba 3d 02 2c 79 bd 2e 76 c3 3d
       -0.017929856 0.09105457 -0.060832985 0.09544025

scalar_fc.weight f4 [64, 1]
000000 f6 7e 5f 3f 4e fc 08 be de da 87 bc 7a 1c da bd
       0.873031 -0.13377497 -0.016583856 -0.10649963
000010 ed 47 7e 3f d9 8f 15 3e cf 06 3d 3e 1b 3f b5 be
       0.993285 0.14605655 0.18459629 -0.35399708
000020 60 15 b7 3b c7 6a f7 be a2 0b f1 3c ae dd 1b be
       0.005587265 -0.48323652 0.029424492 -0.15221283
000030 69 6d 86 3e 0a 56 62 3e 53 b2 42 bf ab 66 27 3f
       0.26255348 0.22103134 -0.7605335 0.65391034
000040 2f 39 27 3f dc 08 2f 3f 12 00 2e 3f d8 0e 4d 3e
       0.6532163 0.68372893 0.6796886 0.20025194
000050 6c e4 16 3f eb 8d f8 3e 40 a7 2a 3f 46 be 0c bf
       0.58942294 0.48545775 0.66661453 -0.54977834
000060 6c 5b fb 3e 72 8a e4 bc 79 52 be 3e b7 2f c9 3e
       0.49093187 -0.027898047 0.37172297 0.39294216
000070 b7 6b 55 bf 23 3f d8 be 5d 5a 2a bf 73 63 c7 be
       -0.83367485 -0.4223567 -0.66544133 -0.3894306
000080 f8 c6 8c 3e 36 90 7c 3e ae fc fc 3e 94 e8 33 bf
       0.2749555 0.24664387 0.4941153 -0.7027676
000090 9c 35 ba 3e cc a6 5b 3f f6 96 20 be 8d 70 67 bf
       0.36369026 0.85801387 -0.15682587 -0.90406114
0000a0 14 df 9d 3e d6 4c 9c be 5e fb b5 3e d4 15 ba be
       0.30834258 -0.3052737 0.3554334 -0.3634478
0000b0 36 65 ce bd bb 00 55 bf c2 cf 4c 3f df 5e 1c bf
       -0.10077898 -0.8320424 0.80004513 -0.6108226
0000c0 8c 16 45 bf 6c 8c e8 be 94 9a 9d 3d e4 da 6b 3f
       -0.7698753 -0.45419633 0.07695499 0.92130876
0000d0 c3 9d c5 3d e5 89 08 be f1 43 9c be 4e 57 d7 3e
       0.09649231 -0.13333853 -0.30520585 0.42058796
0000e0 b4 ac 0d bc 5d 86 71 be 6d 09 1c be 28 02 8f 3e
       -0.008647133 -0.23586412 -0.1523797 0.27931333
0000f0 d4 5e df 3e 97 3b b0 3d a0 9e 10 bf 94 03 c9 3e
       0.43627036 0.08605116 -0.5649204 0.39260542

scalar_fc.bias f4 [64]
000000 95 6a 15 bf b2 23 7f 3d 81 66 37 3f 72 da 1e 3f
       -0.58365756 0.0622899 0.71640784 0.6205207
000010 62 b0 30 bf 8a e1 de be 26 73 c0 3d 6b 3b 1f 3f
       -0.6901914 -0.43531448 0.09396963 0.6220004
000020 5f c7 c6 be c7 96 5d bf 20 35 83 bc 30 1b 1e 3f
       -0.38823983 -0.8655819 -0.016016543 0.61760235
000030 c1 40 dc be 11 88 65 bf 60 ff 03 3e 40 c3 52 3f
       -0.43018153 -0.89660746 0.12890387 0.8232918
000040 f2 38 2b bf d5 3d 4f 3e 46 9e 11 3f e0 dc ff bc
       -0.66883767 0.20238431 0.5688213 -0.031233251
000050 40 50 d4 be 9f 77 b1 be a1 02 ec be c4 51 02 3e
       -0.41467476 -0.34661576 -0.46095756 0.12726504
000060 41 93 cd be 71 e2 66 3c a3 7f 58 be 61 b3 28 bf
       -0.40151408 0.014092074 -0.2114244 -0.6589871
000070 2b 0c 58 3f db 1f 85 3e 5c 68 e2 3e 35 61 dd 3e
       0.84393567 0.26000866 0.44220245 0.43238226
000080 f9 75 b8 3e 6a 15 5d be a6 2b a8 be 06 f3 09 bf
       0.36027506 -0.215902 -0.328458 -0.5388645
000090 67 24 56 bf bc c2 30 bf 1a 4f c8 3d bf ec 2f 3f
       -0.83649296 -0.6904714 0.097807124 0.6872062
0000a0 02 44 5f bf b1 b8 04 bf bd 0d 28 bf 95 c1 11 bf
       -0.87213147 -0.51844317 -0.6564596 -0.5693601
0000b0 4d 3d 0f 3f f9 2c 48 bf 28 23 35 bf 62 45 10 bf
       0.5595291 -0.7819362 -0.7075677 -0.5635587
0000c0 50 d7 c4 3e aa 91 77 be ae 4c 19 bf 64 94 50 3f
       0.3844552 -0.2417666 -0.5988263 0.81476426
0000d0 d4 10 42 3d 3d 9d 24 bf 48 18 bf 3c cb d4 15 3f
       0.04737933 -0.64302427 0.023327008 0.5852782
0000e0 e9 8b 89 3e 88 ff 12 bf 47 df bb be d7 ba 62 be
       0.26864555 -0.5742116 -0.36693785 -0.22141586
0000f0 54 0c 63 3e e9 e0 5e bd 47 b5 08 3f 49 7b 71 3c
       0.22172672 -0.05441371 0.5340161 0.014738866

fc.weight f4 [1, 128]
000000 0c 0d 7c bb d4 fb 0f bc dc c0 1a 3b 1f 40 04 bc
       -0.0038459925 -0.008788068 0.0023613488 -0.008071928
000010 9a 7b d1 b9 7e d7 b0 39 15 63 a4 3c bc 27 41 bb
       -0.00039955677 0.0003372989 0.020066777 -0.0029473146
000020 46 82 40 3b d9 13 da 3c df 59 fd 3a 38 5f 97 3b
       0.0029374524 0.026620792 0.0019329152 0.0046195053
000030 0d 01 f1 bb 5c 5c e4 ba 43 52 5b 3b 32 fd 6a bc
       -0.0073548616 -0.0017422545 0.003346578 -0.014342593
000040 fd a2 2a bc 92 91 bd 3a 9c 34 ed bb f6 2c 57 3a
       -0.010414836 0.0014462939 -0.0072389375 0.0008208299
000050 9d 29 2e bd 98 6a 85 bb 15 d8 9d 3b dc 0d 90 bb
       -0.042520154 -0.004071545 0.0048170188 -0.0043961834
000060 83 72 c6 3a c7 9d d9 3c 62 9b 0d bb 4e 64 1d 3c
       0.0015140328 0.026564492 -0.0021607508 0.009606434
000070 58 5e 0a bc 5e 31 40 bc 62 75 8a 3c f1 a4 d0 3a
       -0.008445345 -0.01173052 0.016901676 0.0015918297
000080 e2 5c e3 3a a3 d9 33 3c 3a d5 fe bc 88 4c 00 bc
       0.0017346407 0.010977182 -0.031107534 -0.0078307465
000090 5c d1 49 3c 1b be 01 3c cb e8 f4 3a a1 34 d9 bc
       0.012317982 0.00791886 0.00186851 -0.026514353
0000a0 21 0f 18 bd ca b6 eb b9 7c ea a3 3c 3c 33 55 3b
       -0.037123803 -0.0004495888 0.020009272 0.0032531759
0000b0 b7 95 38 3a d0 fd 05 3c 57 a9 e1 3c 9b ba c9 3c
       0.0007041352 0.008178189 0.027546568 0.024625113
0000c0 76 d9 d9 bb f4 d5 46 b9 af d2 44 bb 6b 14 3d 3d
       -0.006648238 -0.00018962455 -0.0030032804 0.04616205
0000d0 eb 35 a0 3a 44 2f f2 bb 3c 34 5f 3b 84 c4 64 bb
       0.00122231 -0.0073908884 0.0034058234 -0.0034907172
0000e0 9c 26 e1 3c ad 6a 08 3d 54 23 d5 3c fd 90 9a bb
       0.02748423 0.03330486 0.026017822 -0.004716991
0000f0 fb 6c 11 3b b1 94 b9 b9 1b f2 44 3b dd 2b e9 3b
       0.0022190202 -0.00035396733 0.0030051533 0.0071158246
000100 92 ba d4 3b bd 9e 54 3b 21 78 00 bd 65 f9 28 bd
       0.0064919675 0.0032443248 -0.031364564 -0.041253466
000110 74 01 0b 3c fe 2d 3f bd 1b 9f 30 bd 10 bd b1 3d
       0.008484233 -0.04667472 -0.043120485 0.08678639
000120 1a d2 9f bd 10 8d 3b bd 29 77 91 3b be 93 b8 3d
       -0.078037456 -0.045788825 0.004439254 0.090125546
000130 f1 b4 a7 bc de 3d 7f bd 7c de 4e 3d 0c e0 c7 3d
       -0.020472022 -0.06231486 0.050505146 0.097595304
000140 02 89 5b 3c dd c0 a1 3d 2f 83 68 bd ed 78 15 bd
       0.013399364 0.07898114 -0.05676573 -0.036492277
000150 b8 02 02 3c f9 32 7c bc d9 01 c3 3b 26 b1 5f 3d
       0.0079352185 -0.015393012 0.005951148 0.0546123
000160 f8 24 b6 bc 58 cc 64 bb 4a 5e 19 3d 86 ac 64 bd
       -0.022234425 -0.0034911837 0.037443437 -0.055828594
000170 7e 90 8c bc c3 56 24 3d 67 04 51 bb e7 1c 22 bc
       -0.017158743 0.040121805 -0.0031893493 -0.009894586
000180 55 0b 2e 3d 03 bb f9 bc fe 4b c4 3b 32 80 aa bd
       0.042491276 -0.030484682 0.0059905043 -0.083252326
000190 15 27 17 bd 22 ef e2 3c 52 60 2d bb da 2c 20 ba
       -0.036902506 0.027701918 -0.0026455116 -0.0006110199
0001a0 62 a2 1e 3d 13 48 bd 3c 64 16 9f 3c fb 58 93 3c
       0.03872908 0.023105657 0.019419856 0.017986765
0001b0 f9 18 a6 bb 7a 0e c0 bd 01 2c 85 bd 4f d1 87 bd
       -0.005068895 -0.09377761 -0.06502534 -0.06631719
0001c0 7c 55 5f 3b 92 1e 3a 3d 9f 4b 58 3d ae 1c b0 3d
       0.0034078052 0.04543931 0.052806493 0.0859922
0001d0 bc cb 38 3c 2a 4e 0f 3d 5b 63 93 bb 1a e7 60 3d
       0.011279043 0.034986652 -0.004497928 0.054907896
0001e0 91 b9 d1 bc 8d 1b 73 3d 80 8a 6a 3c 84 56 89 3a
       -0.02560118 0.059352446 0.014315248 0.0010478054
0001f0 5d c5 31 bc 6d 7b 44 3a c5 d0 d5 39 2a e7 e9 bc
       -0.010850278 0.00074951985 0.0004078207 -0.02855261
